CNN/model/lenet_model.pt (torch, 250885 bytes, 10 tensors)

conv1.weight f4 [6, 1, 5, 5]
0	0xbe72e588	-0.23720372
1	0xbe7c8bd3	-0.24662714
2	0x3de91870	0.11381614
3	0x3d93e0c7	0.07220607
4	0x3c9d6582	0.019213442
5	0xbe701d69	-0.23448719
6	0x3e2ae31e	0.16688201
7	0x3d4f3118	0.05058393
8	0x3dc8127d	0.09769151
9	0xbe620b5b	-0.22074644
10	0x3e64daa2	0.22349027
11	0x3e089256	0.13337073
12	0x3e80a1f1	0.2512355
13	0x3d45d63c	0.048300013
14	0xbd19f33a	-0.037585475
15	0x3e86f314	0.2635733
16	0x3e06df65	0.13171156
17	0x3e13c8fb	0.14432137
18	0x3e7071a1	0.23480846
19	0x3d358d4e	0.04432421
20	0x3d16c9f6	0.0368137
21	0x3e9a2aa9	0.30110672
22	0x3ea5606d	0.3230013
23	0x3dcae863	0.099076055
24	0xbe337f64	-0.17529064
25	0x3d444578	0.047917813
26	0x3e1e3653	0.1545041
27	0x3e78d098	0.24298322
28	0x3ed61f7f	0.41820905
29	0x3e76ba2d	0.24094458
30	0x3eb3a8df	0.35089776
31	0x3e90d190	0.28284883
32	0x3e6f70d7	0.23382889
33	0x3ea09005	0.31359878
34	0x3edcaa07	0.4309847
35	0xbe27f7e0	-0.1640315
36	0xbd63733f	-0.05552983
37	0xbe283439	-0.16426171
38	0xbe12560f	-0.14290641
39	0x3e4fb045	0.20282085
40	0xbed7ed7a	-0.42173368
41	0xbeaffaae	-0.3437094
42	0xbe9318b1	-0.28729776
43	0xbefd1754	-0.4943186
44	0x3bdea332	0.0067943567
45	0xbdb09e1f	-0.08623909
46	0xbe8bae76	-0.2728154
47	0xbe30249a	-0.17201462
48	0xbe9d5c1a	-0.3073433
49	0xbe51f81a	-0.205048
50	0x3e22d4ee	0.15901539
51	0xbd815093	-0.063141964
52	0x3e05ee06	0.1307908
53	0x3d90a68a	0.07063015
54	0xbe24a606	-0.16078958
55	0xbe2e8530	-0.17042994
56	0x3d9d9ea6	0.076962754
57	0xbd6d7bc7	-0.05797937
58	0x3e16e64d	0.1473629
59	0x3d9d2fd1	0.07675136
60	0xbd531d9f	-0.05154192
61	0x3e401f4f	0.18761943
62	0x3d2a42df	0.04156768
63	0x3eac2990	0.3362546
64	0x3e6e7e04	0.23290259
65	0x3d2887ba	0.041145064
66	0x3e35f553	0.17769365
67	0x3d851ef4	0.065000445
68	0x3eabe424	0.33572495
69	0x3e481d14	0.19542342
70	0x3d93d524	0.07218388
71	0x3c33be2a	0.010970632
72	0x3dbd9876	0.09257595
73	0x3d4a6443	0.049412023
74	0xbe1e5e19	-0.15465583
75	0xbe670799	-0.22561492
76	0xbe42ffca	-0.19042888
77	0xbdfc37ab	-0.12315305
78	0xbe221235	-0.15827258
79	0xbe929e22	-0.2863627
80	0xbe7e148f	-0.2481253
81	0xbe81c09c	-0.25342262
82	0x3d42b739	0.047538016
83	0xbe8009aa	-0.25007373
84	0xbe92c6d5	-0.28667322
85	0xbeb8aeb3	-0.36070785
86	0xbe368af9	-0.17826451
87	0xbe32df96	-0.17468104
88	0xbd21d30d	-0.039507914
89	0xbe9cdf7c	-0.30639255
90	0xbe648cc5	-0.22319324
91	0xbe10c04c	-0.14135855
92	0xbe2dee28	-0.1698538
93	0xbe71ecb3	-0.2362545
94	0xbcd2bf2e	-0.025725927
95	0x3e31edce	0.17375872
96	0xbe4706ad	-0.1943614
97	0x3c03e731	0.008050726
98	0x3d61546f	0.055012163
99	0x3eb468b2	0.35236126
100	0x3d9d266e	0.076733455
101	0x3e83765b	0.25676236
102	0x3e46b219	0.19403876
103	0x3ddb5d20	0.107111216
104	0xbdf4e45c	-0.119576186
105	0xbdbf1b91	-0.0933143
106	0x3d1165b6	0.03549739
107	0x3d04742e	0.03233736
108	0x3e26cee9	0.16289867
109	0x3d69f51a	0.057118513
110	0x3c89b119	0.01680808
111	0xbdbe2e2c	-0.0928615
112	0xbe50c301	-0.20386888
113	0x3da5954a	0.08085115
114	0x3d2ed90e	0.04268747
115	0xbefbe0e2	-0.4919501
116	0xbeef08c0	-0.46686363
117	0xbc70104b	-0.014652322
118	0x3eaa38ea	0.33246547
119	0x3e96ae01	0.2942963
120	0xbea43989	-0.32075146
121	0xbda0ed2f	-0.07857739
122	0x3e1651ca	0.14679638
123	0x3ec5f895	0.38666216
124	0x3ee0073d	0.43755522
125	0xbe2a4eb6	-0.16631588
126	0xbe34987b	-0.17636292
127	0x3db76f2c	0.08956751
128	0x3e50c144	0.20386225
129	0x3e740078	0.23828304
130	0x3e19e45b	0.15028517
131	0x3e7c6f51	0.24651839
132	0x3e96f714	0.2948538
133	0x3d022c08	0.031780273
134	0x3dc68ccc	0.096948236
135	0x3e473efd	0.19457622
136	0x3d00ddcc	0.031461522
137	0x3e1a50f7	0.15069948
138	0x3d22d8f3	0.03975768
139	0x3e591ab7	0.21201597
140	0x3dcb76a9	0.09934742
141	0x3d03e545	0.03220107
142	0x3e1aa6fe	0.15102765
143	0x3e229c04	0.15879828
144	0xbda275be	-0.07932614
145	0x3dd1c990	0.10243523
146	0xbe353f64	-0.17699963
147	0xbe7858e6	-0.24252662
148	0xb9cdf2c6	-0.00039281527
149	0xbe36a993	-0.17838125

conv1.bias f4 [6]
0	0x3ea40afb	0.32039627
1	0x3e817fac	0.25292718
2	0x3e8690a4	0.26282227
3	0x3d141a5b	0.036157947
4	0x3e1eeb5b	0.15519468
5	0xbd9780bc	-0.07397601

conv2.weight f4 [16, 6, 5, 5]
0	0x3be16baf	0.006879292
1	0x3d3b0f30	0.04566878
2	0xbddb6316	-0.107122585
3	0xbe334ad8	-0.1750902
4	0xbd89eee2	-0.067350164
5	0xbe025085	-0.12726028
6	0x3dad2525	0.084543504
7	0x3dacf234	0.08444634
8	0x3b8eeef4	0.0043619815
9	0xbc9ebcf2	-0.019377206
10	0xbd447b29	-0.047969017
11	0xbdb70252	-0.089359894
12	0xbcacdfb9	-0.021102773
13	0x3d894b72	0.06703843
14	0x3d993a76	0.07481854
15	0xbdfc7a3d	-0.123280026
16	0xbdea0bd6	-0.11428039
17	0x3d2635bd	0.040578593
18	0xbd3d7d4a	-0.046262063
19	0x3c465eec	0.012107592
20	0xbe2ac9a5	-0.16678484
21	0xbd5a3351	-0.053271595
22	0x3ce9e294	0.028550424
23	0x3c9a97a9	0.018871145
24	0xbcf293b4	-0.029611446
25	0xbdc8708a	-0.0978709
26	0xbe7f1007	-0.24908458
27	0xbd77944c	-0.06044416
28	0x3e089a9a	0.13340226
29	0x3e5461f5	0.20740493
30	0x3e54e38a	0.20789924
31	0xbde5e346	-0.112249896
32	0xbeab4fd6	-0.33459347
33	0xbe1feb46	-0.15617093
34	0x3e663067	0.22479402
35	0x3e6030fa	0.21893683
36	0x3e5a9e59	0.21349467
37	0xbd0c3e76	-0.034239255
38	0xbe8aa13c	-0.27076137
39	0xbdddce69	-0.10830385
40	0x3dfd0a1b	0.12355443
41	0x3e3caae5	0.18424566
42	0x3d0ac191	0.033876006
43	0xbdca9aaf	-0.09892785
44	0xbafdce45	-0.0019363841
45	0xbdb7475f	-0.0894916
46	0xbcbc9d60	-0.023024261
47	0xbdd87d7a	-0.10570808
48	0xbd564a66	-0.052317046
49	0x3d9887af	0.074477546
50	0xbcf47ab5	-0.029843668
51	0x3cae32bf	0.021264432
52	0xbdcd0676	-0.10010998
53	0xbcfee573	-0.03111527
54	0xbdb068bf	-0.08613729
55	0x3c89932b	0.016793808
56	0x3d33a83d	0.043861616
57	0x3d6dd616	0.058065496
58	0xbe125218	-0.14289129
59	0xbd9120df	-0.07086348
60	0xbda17ad5	-0.078847565
61	0x3dde4a09	0.10853965
62	0x3e21e4af	0.15809892
63	0xbd0a83b6	-0.033817016
64	0x3cc6745a	0.024225403
65	0xbd943bf4	-0.07237998
66	0x3d520be6	0.05128088
67	0x3dc8dc9b	0.09807702
68	0x3df35f9d	0.11883471
69	0xbdbcdfc2	-0.09222366
70	0xbd344f52	-0.04402096
71	0xbd181a45	-0.037134428
72	0x3dc2e466	0.0951622
73	0x3d90cab8	0.070699155
74	0xbd8ccb26	-0.06874685
75	0xbc934bdc	-0.017980509
76	0x3d635d41	0.055508856
77	0x3d9e3063	0.07724073
78	0x3d98e534	0.07465592
79	0x3c8f6f97	0.017509265
80	0x3ca2a6ac	0.019854866
81	0x3d8c47cc	0.06849632
82	0xbd26fcff	-0.04076862
83	0x3db37c3c	0.0876393
84	0xbd26dfac	-0.040740654
85	0xbcb760ff	-0.022385119
86	0xbe06ae3e	-0.13152406
87	0xbdf5bf09	-0.11999328
88	0xbdec26bf	-0.11530828
89	0xbca572da	-0.020196367
90	0x3e1c38f0	0.15256095
91	0x3c59ad39	0.013285928
92	0xbe00d1e4	-0.12580067
93	0xbde7cd5c	-0.11318466
94	0xbddedb3a	-0.10881658
95	0x3da152f8	0.07877153
96	0x3d4723f8	0.048618287
97	0xbe0481d5	-0.12940152
98	0xbe3b2cba	-0.1827878
99	0xbde51da5	-0.11187295
100	0x3c4d91c2	0.012546958
101	0x3d0f75d6	0.035024486
102	0xbe419cfb	-0.1890754
103	0xbdd01d76	-0.10161869
104	0x3d2bdb9d	0.041957486
105	0x3e18a8e8	0.14908183
106	0x3e8706a7	0.26372263
107	0x3db4bc4b	0.088249765
108	0xbd94578f	-0.07243263
109	0xbd6142fd	-0.054995526
110	0xbd0f9a42	-0.03505922
111	0x3e08fc17	0.13377415
112	0x3e643ba7	0.2228838
113	0xbd8485c5	-0.06470827
114	0xbd83c217	-0.06433504
115	0xbe1cf5fb	-0.15328209
116	0x3df28f06	0.11843686
117	0x3e3d2797	0.18472134
118	0x3dd56b87	0.104209
119	0xbdc6f20f	-0.09714138
120	0xbdf3aa34	-0.11897698
121	0x3d3870a4	0.045029297
122	0x3d2b4f35	0.041823585
123	0x3c5f0bf7	0.0136136925
124	0xbdb38b5a	-0.087668136
125	0x3da861d7	0.082217865
126	0xbda66335	-0.08124391
127	0xbe24303d	-0.16034026
128	0xbe0571f9	-0.13031758
129	0xbd96bc87	-0.073601775
130	0x3ce4b3ea	0.027917821
131	0x3c726b16	0.014796039
132	0xbda232dd	-0.07919858
133	0xbd01c030	-0.031677425
134	0xbced9201	-0.029000284
135	0xbd3a9877	-0.045555558
136	0x3d3ca8b5	0.04605933
137	0x3d68cc49	0.056835447
138	0xbd60c667	-0.05487671
139	0xbe0571f3	-0.1303175
140	0x3c662baa	0.014048496
141	0x3d6a3b7a	0.057185628
142	0x3c28c5cf	0.0103010675
143	0x3cf2dee7	0.029647304
144	0xbd8400a9	-0.064454384
145	0xbdfb0d83	-0.122584365
146	0xbd3281d6	-0.043580852
147	0x3d7f44d1	0.062321488
148	0x3c6f8094	0.014618058
149	0xbce3f34d	-0.027825976
150	0x3e05f121	0.13080265
151	0x3c9818ae	0.018566456
152	0xbd1242e2	-0.035708316
153	0x3d62fd5a	0.055417396
154	0x3b37ad4b	0.0028026875
155	0x3d4ac7ad	0.049506832
156	0xbc87544e	-0.016519692
157	0xbd0804f3	-0.033207845
158	0xbd91293b	-0.07087942
159	0x3d9b4a35	0.07582513
160	0x3b00b5e5	0.0019639668
161	0xbd577261	-0.052599315
162	0x3d8246bd	0.063611485
163	0x3d5bc57a	0.053655125
164	0xbbe6efec	-0.007047644
165	0x3dc63752	0.0967852
166	0x3d44f65f	0.04808652
167	0xbbbdaa3a	-0.005788115
168	0xbdbb0d4c	-0.091333956
169	0xbb505778	-0.0031790417
170	0x3d883393	0.06650462
171	0xbdbe9ef6	-0.09307663
172	0x3c756538	0.014977746
173	0x3d14dde9	0.036344443
174	0x3b2839fd	0.002566933
175	0xbcc83876	-0.024440985
176	0xbc465c48	-0.0121069625
177	0xbdcd9ce8	-0.10039693
178	0xbcaa069d	-0.020755107
179	0xbdfc3004	-0.12313846
180	0xbd5089e5	-0.050912756
181	0xbdd73738	-0.10508579
182	0xbe0a3c03	-0.13499455
183	0xbde008c6	-0.109391734
184	0xbe37ae43	-0.1793757
185	0xbdecea5f	-0.1156814
186	0xbcaef066	-0.021354865
187	0xbe2ee80d	-0.17080708
188	0xbe11b4c7	-0.14229117
189	0xbd117af8	-0.035517663
190	0xbba4a824	-0.0050249267
191	0x3da6cf84	0.08145049
192	0x3e036674	0.12832052
193	0x3df8b5a8	0.12144023
194	0x3e14f8dd	0.14548059
195	0xbb385d55	-0.0028131802
196	0x3d25c598	0.040471643
197	0x3d93b2ef	0.07211863
198	0x3d076347	0.033053663
199	0x3db3334a	0.08750017
200	0x3afd0600	0.0019304156
201	0xbd744514	-0.05963619
202	0xbd832655	-0.06403796
203	0x3c80c2d3	0.0157179
204	0xbd287372	-0.041125722
205	0x3d3a6cb3	0.04551382
206	0x3d1317f3	0.03591151
207	0x3d04c34e	0.03241282
208	0x3c54bf3a	0.012985045
209	0x3d0ad4ab	0.033894222
210	0x3dd26a20	0.10274148
211	0x3d0d29e5	0.034463782
212	0x3d91972e	0.07108913
213	0xbd3b6f12	-0.04576022
214	0x3c64751a	0.013943935
215	0x3dbabca6	0.09118013
216	0x3d08bbf1	0.03338236
217	0xbc516851	-0.012781219
218	0x3d351e4d	0.04421835
219	0x3b05a8f7	0.00203949
220	0xbd39926f	-0.045305666
221	0xbd05e1dc	-0.0326861
222	0xbd771cbf	-0.06033015
223	0x3c555bfb	0.013022418
224	0x3b5166f5	0.0031952236
225	0xbd9b984d	-0.075974084
226	0xbd8dfd5a	-0.069330886
227	0x3d6d6eba	0.057966925
228	0xbc715eec	-0.014732104
229	0xbaf9c055	-0.0019054512
230	0xbd84751d	-0.0646765
231	0x3a9d598c	0.0012004836
232	0xbdc9398e	-0.09825431
233	0x3d168530	0.03674811
234	0xbd17f07c	-0.03709458
235	0xbd196592	-0.03745038
236	0x3c569a24	0.013098273
237	0x3cbbf8d3	0.022945797
238	0x3c06416b	0.008194308
239	0x3d4c0eb8	0.049818724
240	0x3d036036	0.032074176
241	0x3d008285	0.031374473
242	0xbde96fe3	-0.11398294
243	0xbd8da80f	-0.0691682
244	0xbd822adf	-0.06355833
245	0xbd835e1e	-0.06414436
246	0x3d5e7fd9	0.054321144
247	0x3dad5024	0.08462551
248	0x3dd4f86a	0.10398944
249	0xbca6fcb3	-0.020384168
250	0x3dd031a6	0.1016572
251	0x3d1f8a71	0.038950387
252	0x3c4af458	0.012387358
253	0x3ce6349a	0.028101254
254	0x3c4cdad4	0.012503345
255	0x3c9651ab	0.01834949

conv2.bias f4 [16]
0	0x3da2cc1f	0.07949089
1	0x3cfcffba	0.030883659
2	0xbdaa2b40	-0.083090305
3	0xbdcf38a7	-0.101182275
4	0xbc90c8ce	-0.017673876
5	0xbc01dd99	-0.007926368
6	0x3d834a69	0.06410677
7	0x3cf6f183	0.030144459
8	0x3d9243c8	0.071418345
9	0x3d4424c8	0.04788664
10	0xbd40955f	-0.04701745
11	0xbd94d358	-0.07266873
12	0xbd6c9f5f	-0.057769176
13	0x3cbdb66b	0.023158273
14	0x3ce32cd8	0.027731344
15	0x3d853ca1	0.06505705

fc_1.weight f4 [120, 400]
0	0xba8fc49d	-0.001096863
1	0x3c52cad2	0.012865739
2	0xbd099a79	-0.033594582
3	0xbd0f3806	-0.034965537
4	0x3e2c6f3e	0.1683931
5	0x3cafa67e	0.021441694
6	0x3d1eb510	0.038746893
7	0xbcb1a187	-0.021683468
8	0x3d408f66	0.047011755
9	0x3c2a74aa	0.010403791
10	0x3d0ff19b	0.035142522
11	0xbc27d9c9	-0.010244795
12	0xbc20a4d9	-0.009804928
13	0x3c10344a	0.008801529
14	0x3dc0009c	0.09375116
15	0x3d013696	0.031546198
16	0x3d8638ec	0.06553826
17	0x3d500900	0.050789833
18	0xbe0673e5	-0.13130148
19	0xbd69edca	-0.05711154
20	0x3d80bc44	0.06285909
21	0xbce8f2f0	-0.028436154
22	0x3cf13d36	0.029448133
23	0xbd9425d7	-0.0723378
24	0xbdcfc06a	-0.10144122
25	0x3ce9fbf7	0.028562529
26	0x3d453ebb	0.048155528
27	0xbc801b50	-0.015638024
28	0xbc3ad472	-0.01140319
29	0x3cb3b47b	0.021936646
30	0x3c4b55e3	0.012410614
31	0x3ccb5973	0.024822926
32	0x3d8d1360	0.06888461
33	0x3d279dbd	0.040921915
34	0xbd182e55	-0.03715356
35	0x3aa63800	0.0012681484
36	0xbdb83782	-0.08994962
37	0xbe1b066d	-0.1513917
38	0xbd609782	-0.05483199
39	0x3d36d9a1	0.04464114
40	0xbd903562	-0.07041432
41	0xbc9d6691	-0.019213947
42	0xbc74c430	-0.014939353
43	0xbc9d3ea1	-0.019194903
44	0x3d5b5a5e	0.053552978
45	0x3d9ef17e	0.07760905
46	0x3df8c6ff	0.121473305
47	0x3d49e582	0.04929114
48	0x3d789677	0.06069037
49	0x3d37e980	0.044900417
50	0xbcae463d	-0.021273727
51	0x3d73bc7c	0.059505925
52	0xbc4d09d5	-0.012514551
53	0x3cedd67d	0.02903294
54	0x3c870a80	0.016484499
55	0x3d155f3e	0.036467783
56	0x3ca2d391	0.019876273
57	0xbda9f1ac	-0.082980484
58	0xbd8412cd	-0.064488985
59	0xbd4a2331	-0.049349967
60	0x3cf54824	0.029941626
61	0x3d545c66	0.05184593
62	0xbdb366fc	-0.08759877
63	0xba011330	-0.00049238186
64	0x3c780ff4	0.015140522
65	0x3da3d440	0.07999468
66	0x3bb5590f	0.0055342983
67	0xbdf5d6d7	-0.12003868
68	0x3d814ade	0.06313108
69	0x3e29a75c	0.16567749
70	0x3d58b7ad	0.052909542
71	0xbd5821b2	-0.05276651
72	0xbca7feb6	-0.020507198
73	0xbd1b315d	-0.037888873
74	0x3e6c0b76	0.23051247
75	0x3cb4ff09	0.022094266
76	0x3db38034	0.08764687
77	0x3e0119fe	0.12607571
78	0x3c1b6f65	0.009487008
79	0xbc6f0259	-0.014587962
80	0x3d533259	0.051561687
81	0x3d80ffff	0.062988274
82	0xbd9e529f	-0.077306025
83	0xbd907640	-0.070538044
84	0xbe15fe3d	-0.14647765
85	0xbc7419f0	-0.014898762
86	0x3d471f49	0.04861382
87	0x3cd05f4c	0.025436066
88	0xbd177fd8	-0.036987156
89	0xbda8711f	-0.08224701
90	0x3d5ae62e	0.053442173
91	0xbc5b9881	-0.013403059
92	0xbd2f7705	-0.042838115
93	0xbd352e52	-0.044233628
94	0x3d8e3522	0.06943728
95	0xbda7b124	-0.08188084
96	0xbd3291bd	-0.043596018
97	0x3c4531b0	0.012035772
98	0x3dc7f61a	0.09763737
99	0x3b9b24c0	0.0047346056
100	0xbb3b4797	-0.0028576606
101	0xbc8dc6cb	-0.017306706
102	0x3dec88eb	0.115495525
103	0x3d176772	0.036963888
104	0xbd75fa7b	-0.06005333
105	0x3d5a91df	0.05336177
106	0x3d647ef9	0.055785153
107	0xbca8cae2	-0.020604555
108	0xbe3acf35	-0.18243106
109	0xbd5d31f5	-0.05400272
110	0x3dd79bb9	0.105277486
111	0xbdcb253a	-0.0991921
112	0x3da7b8ec	0.08189568
113	0xbda18158	-0.078859985
114	0x3ce3fff9	0.027832018
115	0x3d78b498	0.060719103
116	0xbcba8fc6	-0.022773635
117	0xbac31fa2	-0.0014886747
118	0x3bf3cc9d	0.0074401633
119	0x3d12c1fb	0.035829525
120	0x3dfce973	0.123492144
121	0xbd60c7dd	-0.054878104
122	0xbd5a8113	-0.05334575
123	0xbd7e455d	-0.06207787
124	0xbd131019	-0.035904024
125	0x3d5875f7	0.052846875
126	0x3d575e10	0.05257994
127	0x3d36c39f	0.044620153
128	0x3d9483a4	0.07251671
129	0xbe1d9444	-0.1538859
130	0x3cb3db79	0.021955239
131	0xbaeb79fb	-0.001796543
132	0x3db0e3cc	0.08637199
133	0x3d9bfedc	0.0761697
134	0xbdbe0e40	-0.09280062
135	0x3cf1b649	0.029505866
136	0xbdec0a20	-0.11525369
137	0xbd9f567a	-0.07780166
138	0xbc89d92d	-0.01682719
139	0x3d7a8c96	0.06116923
140	0x3b8614a2	0.004091815
141	0xbc969f8a	-0.018386621
142	0xbd2ed619	-0.04268465
143	0x3d000e46	0.031263612
144	0x3d195080	0.037430286
145	0xbb9ebefe	-0.0048445454
146	0xbc9ed787	-0.01938988
147	0xbc95483b	-0.018222919
148	0x3b844f23	0.004037754
149	0x3d3ff871	0.04686779
150	0x3de4adb2	0.11165942
151	0x3dc091ec	0.094028324
152	0x3dba801b	0.091064654
153	0x3d29d9c3	0.04146744
154	0xbdc0a445	-0.09406332
155	0xbd354b01	-0.044260982
156	0x3d418727	0.047248032
157	0x3dc9aa9a	0.09846993
158	0xbd6da729	-0.058020744
159	0xbdb44734	-0.088026434
160	0xbbd67689	-0.006544892
161	0xbdc16352	-0.09442772
162	0x3de90a9a	0.11378975
163	0x3d44ab0d	0.04801469
164	0x3d9444be	0.07239674
165	0x3c05018d	0.0081180455
166	0x3cde37d7	0.027126236
167	0xbc8d875a	-0.017276455
168	0x3c67c0a6	0.014145052
169	0x3d3dbba2	0.04632152
170	0x3ca6a46c	0.020342074
171	0x3c060f2e	0.00818233
172	0x3d788f3e	0.06068348
173	0x3d6cd71b	0.057822328
174	0x3d3ec832	0.04657764
175	0x3dbf9665	0.09354857
176	0x3d8ad24d	0.06778393
177	0x3d5a99ac	0.05336921
178	0xbbeec337	-0.007286455
179	0xbd7bb516	-0.061451994
180	0x3dab3897	0.08360403
181	0xbbe52ac8	-0.0069936253
182	0xbcc9d628	-0.02463825
183	0xbc7b6d59	-0.015345895
184	0xbd42cf8b	-0.04756121
185	0xbd931e74	-0.07183543
186	0xbcf2bb8c	-0.029630445
187	0x3d9aeade	0.075643286
188	0x3c5cbdb9	0.013472968
189	0xbd6d055a	-0.05786643
190	0x3d898b3b	0.06716009
191	0x3d81f447	0.0634542
192	0xbc5a4a2e	-0.01332335
193	0xbd41860c	-0.047246978
194	0xbd1f2c8c	-0.038860843
195	0x3def60de	0.11688398
196	0xbb489a3e	-0.0030609514
197	0xbe0b1142	-0.13580802
198	0xbd8974a2	-0.06711699
199	0xbcbd82b3	-0.023133611
200	0x3ba20f4b	0.0049456707
201	0x3d5738e2	0.052544482
202	0xbac8e408	-0.0015326748
203	0x3d51cffa	0.051223733
204	0xbd7158b2	-0.058922477
205	0x3bc2522f	0.005930207
206	0x3c277c45	0.010222499
207	0xbe39d5c1	-0.18147947
208	0xbe448bdb	-0.19193976
209	0x3bee9e31	0.0072820415
210	0x3d353619	0.044241045
211	0xbc846965	-0.016163537
212	0xbd0d8d9c	-0.034558877
213	0xbddc7a71	-0.10765541
214	0xbc3a1f4f	-0.011360004
215	0x3d741c9b	0.059597593
216	0x3d1ed837	0.038780417
217	0xbd031a9a	-0.03200779
218	0x3d7adbfb	0.061244946
219	0x3de23a30	0.11046255
220	0xbd186f7f	-0.037215706
221	0x3d55e36d	0.052218843
222	0x3d8b61ab	0.06805738
223	0x3dc8b748	0.09800583
224	0x3ed0e233	0.40797576
225	0xbd00c0b5	-0.03143378
226	0xbb1082bd	-0.0022050582
227	0xbc88412d	-0.01663264
228	0xbcdbc7e9	-0.026828723
229	0xbcf1281d	-0.029438073
230	0xbd17950c	-0.037007377
231	0x3d71b103	0.059006702
232	0x3cc86e8b	0.024466773
233	0xbc5d5cc5	-0.0135108875
234	0x3d63173a	0.055442072
235	0x3a806f24	0.0009798747
236	0xbd9c345c	-0.07627174
237	0xbe201f4c	-0.15636939
238	0xbda2a6b5	-0.07941953
239	0x3d513bc0	0.051082373
240	0xbda6de16	-0.08147828
241	0x3d2708aa	0.040779747
242	0xbd5b46b8	-0.05353424
243	0xbd6b3332	-0.05742187
244	0x3da63fa2	0.08117606
245	0x3cfd5ad9	0.030927109
246	0x3b348dea	0.0027550408
247	0x3d97dbc3	0.07414963
248	0x3ce4c40c	0.027925514
249	0xbcf31c2e	-0.029676523
250	0x3d3f1b75	0.046657044
251	0x3d10f202	0.035387047
252	0x3cb762b8	0.02238594
253	0xbd1cb525	-0.03825869
254	0xbcca7045	-0.024711737
255	0x3d996761	0.07490421

fc_1.bias f4 [120]
0	0xbd0d4c64	-0.03449668
1	0xbd0fd952	-0.035119362
2	0xbb44d4ca	-0.0030034059
3	0xbc5cf391	-0.013485805
4	0xbca10f78	-0.019660696
5	0x3b199ff9	0.0023441298
6	0xbc52a60e	-0.012856973
7	0xbac073cc	-0.0014682948
8	0xbd6165a2	-0.055028565
9	0x3d05e5ac	0.032689735
10	0xbc5e718b	-0.013576875
11	0x3d8ab099	0.067719646
12	0x3d2162e9	0.03940097
13	0x3d42c897	0.04755458
14	0xbcab38ad	-0.020901049
15	0xbd42de8b	-0.047575515
16	0x3d1cbcf3	0.038266134
17	0x3ca5cc67	0.020239068
18	0xbd72e771	-0.05930275
19	0xbb8cca8c	-0.0042966064
20	0x3bca94b1	0.006182276
21	0x3d3ad803	0.04561616
22	0x3d2b177d	0.041770447
23	0x3c05d8a7	0.00816933
24	0x3ccb395a	0.02480762
25	0x3d5b70f4	0.053574517
26	0xbd2ac0dd	-0.041687835
27	0xbc6eac1b	-0.0145674
28	0x3d04bc36	0.032406054
29	0x3cdde0ef	0.027084796
30	0x3c9406d9	0.018069671
31	0x3c4eacb6	0.01261442
32	0x3c57dfc5	0.013175909
33	0xbcb628a8	-0.022236183
34	0xbd0766b9	-0.03305695
35	0x3dc34995	0.09535519
36	0x3d574f9b	0.052566152
37	0xbd5a60e1	-0.053315047
38	0xbd077c2e	-0.03307741
39	0xbbcacaa1	-0.006188706
40	0x3d8df4f1	0.069314845
41	0xbd357d5c	-0.044309005
42	0xbc847097	-0.016166968
43	0x3c7ffbf5	0.015624036
44	0x3cede9b3	0.0290421
45	0xbd0ae6ad	-0.033911396
46	0xbb9ade95	-0.004726241
47	0xbd7f5a0e	-0.062341742
48	0xbcc19eb5	-0.023635248
49	0xbccb6114	-0.024826564
50	0x3c934ec1	0.017981889
51	0x3ca60bbd	0.02026927
52	0x3d797159	0.060899112
53	0x3d8616d6	0.06547324
54	0xbaf3a67e	-0.0018589047
55	0x3cf6e606	0.03013898
56	0xbd87adc0	-0.06624937
57	0xbc831b92	-0.016004357
58	0x3ccc1c0a	0.024915714
59	0xbd198fc7	-0.037490632
60	0xbcacb153	-0.021080649
61	0x3d48f68b	0.049063247
62	0xbccdf83d	-0.025142783
63	0xbd3d9019	-0.04628
64	0x3da36d42	0.07979824
65	0x3d25766d	0.040396143
66	0xbd2a5e15	-0.04159363
67	0x3cbc9d0e	0.023024108
68	0x3d53dfbd	0.051727045
69	0xbd57ee6f	-0.052717622
70	0x3cb2b4d9	0.02181475
71	0xbd28637d	-0.041110504
72	0x3d47cbc0	0.048778296
73	0xba8c3d9f	-0.0010699517
74	0x3ccc9a49	0.024975913
75	0xbc882aee	-0.016622033
76	0xbd1c849d	-0.038212407
77	0xbc873528	-0.016504839
78	0xbd3f947f	-0.046772476
79	0xbc902fd7	-0.017600937
80	0xbc5f4239	-0.013626629
81	0xbc1dc9c1	-0.009630621
82	0x3d80dff6	0.06292717
83	0x3d6389bf	0.055551287
84	0x3cb06af3	0.021535372
85	0xbb9fec68	-0.0048804767
86	0x3d906f57	0.070524864
87	0xbd265d2a	-0.040616192
88	0x3d722b66	0.05912342
89	0xb9f64ce1	-0.00046978056
90	0x3d2619bb	0.040551882
91	0xbd66bafc	-0.056330666
92	0xbc3ea8d6	-0.011636933
93	0x3d8ed2fa	0.06973834
94	0x3d1ead62	0.03873957
95	0xbd41e63a	-0.0473387
96	0xbd1b23c6	-0.037875913
97	0xbccb96e4	-0.024852224
98	0x3bc5b2f9	0.006033298
99	0x3a66e811	0.00088083843
100	0xbc039181	-0.008030296
101	0x3cb0807b	0.02154564
102	0xbda104f5	-0.078622736
103	0x3ce4d33d	0.027932758
104	0x3caf3391	0.021386893
105	0xbcefa74b	-0.029254576
106	0xbd42e1f2	-0.04757876
107	0x3d2d67a5	0.04233517
108	0x3d3e34d5	0.046437103
109	0xbcca32c6	-0.024682414
110	0x3d21ea9f	0.039530393
111	0x3c509ce3	0.012732717
112	0xbcbc248a	-0.022966642
113	0x3a996f7c	0.0011706199
114	0x3df4398b	0.11925038
115	0x3d2281a0	0.0396744
116	0xbd412143	-0.04715086
117	0x3d3e7163	0.046494853
118	0xbc94f922	-0.018185202
119	0xbd31b138	-0.0433819

fc_2.weight f4 [84, 120]
0	0xbd97168e	-0.07377349
1	0x3d523b2c	0.051325962
2	0xbd1a95a2	-0.037740357
3	0xbda51b14	-0.08061805
4	0xbd268c6a	-0.040661253
5	0xbd909b97	-0.070609264
6	0x3d8ac7a9	0.067763634
7	0x3d9fb170	0.077975154
8	0xbd2cfaec	-0.042231485
9	0x3d8f9827	0.07011443
10	0xbd80e415	-0.06293503
11	0xbda6f2ac	-0.08151755
12	0xbc3f03c0	-0.011658609
13	0xbd55bf03	-0.052184116
14	0x3c12c459	0.008957946
15	0xbd1fed3e	-0.03904461
16	0x3d855d90	0.06511986
17	0xbb231da0	-0.0024889484
18	0xbd8b9125	-0.068147935
19	0xbd5282f1	-0.051394407
20	0x3cacb9f4	0.021084763
21	0x3d3441ad	0.044007946
22	0xbda819d4	-0.08208051
23	0x3d3bf7de	0.04589068
24	0x3d9d629b	0.07684823
25	0xbd31d8ab	-0.04341952
26	0xbcef30aa	-0.02919801
27	0xbd96f568	-0.07371026
28	0xbce6b7d0	-0.02816382
29	0xbddd77a0	-0.10813832
30	0xbd83e64f	-0.06440412
31	0xbd1441d7	-0.036195602
32	0xbdb81561	-0.08988453
33	0x3cfcdd18	0.030867144
34	0xbd9cd058	-0.07656926
35	0x3cd12b80	0.025533438
36	0xbcdbbba6	-0.026822876
37	0x3d0ce32c	0.034396335
38	0xbc252248	-0.010078974
39	0x3c161123	0.009159359
40	0xbdc82bd5	-0.09773985
41	0x3d810b2d	0.0630096
42	0xbd813a5e	-0.06309961
43	0x3c8af4b4	0.016962387
44	0xbd61c036	-0.055114947
45	0x3af76683	0.0018875155
46	0x3d85b8f7	0.0652942
47	0x3d715d99	0.058927152
48	0xbb929b50	-0.004474081
49	0xbc08725e	-0.0083280485
50	0x3d6031b7	0.05473491
51	0xbd56da1d	-0.052454103
52	0x3c2ae0dd	0.010429588
53	0xbdb9bced	-0.09069238
54	0x3bc4aa48	0.0060017444
55	0xbdbd272f	-0.09235989
56	0x3d44fbc5	0.04809167
57	0x3d77037d	0.06030606
58	0x3c860faa	0.016364891
59	0xbdbdb153	-0.092623375
60	0xbcde3b64	-0.027127929
61	0x3d158276	0.03650137
62	0xbdb58186	-0.08862595
63	0x3d22bec8	0.039732724
64	0xbd502cd4	-0.050824
65	0xbdc99310	-0.09842503
66	0xbd9fb140	-0.0779748
67	0xbdb7239e	-0.0894234
68	0x3d81e100	0.063417435
69	0x3d7daa34	0.061929896
70	0x3da38732	0.07984771
71	0x3ce85402	0.02836037
72	0xbca79f5d	-0.020461733
73	0x3d87f073	0.06637659
74	0xbcbf3c0e	-0.023344066
75	0xbd5a20f4	-0.053254083
76	0x3cb31a27	0.021863056
77	0xbd315111	-0.0432902
78	0x3d38ef71	0.045150224
79	0x3a944c00	0.0011314154
80	0x3d75b2dc	0.059985027
81	0xbdd32ca2	-0.103112474
82	0x3d1d4cbb	0.038403254
83	0xbd2d9d92	-0.0423866
84	0x3d774c38	0.060375422
85	0xbd9e9552	-0.07743324
86	0xbdced367	-0.100989155
87	0x3d2e817f	0.042603966
88	0x3c7bff58	0.015380703
89	0x3d713349	0.0588868
90	0xbbb626b6	-0.005558814
91	0x3d9350d4	0.07193151
92	0x3d8bb918	0.06822413
93	0x3d1fc1be	0.039003126
94	0x3bd291b9	0.006426063
95	0xbc2f8b48	-0.01071436
96	0x3d87da93	0.066334866
97	0x3d7406cc	0.059576795
98	0x3acbb81d	0.0015542541
99	0xbd3146f3	-0.043280553
100	0xbcf1a174	-0.029495932
101	0xbc345ca8	-0.011008419
102	0x3d46f960	0.048577666
103	0xbd48cca1	-0.049023274
104	0xbca97c74	-0.020689227
105	0xbd09b202	-0.033617027
106	0xbc12dc29	-0.008963623
107	0xbc943100	-0.018089771
108	0x3d94f5e0	0.072734594
109	0xbd8f6461	-0.07001568
110	0xbc98479f	-0.01858884
111	0xbd09eb2c	-0.033671543
112	0xbd22b10d	-0.03971963
113	0xbd5d1473	-0.05397458
114	0xbda67efe	-0.081296906
115	0x3d853c0e	0.06505595
116	0xbda001a3	-0.07812812
117	0xbd7ece14	-0.06220825
118	0xbd48bed8	-0.049010128
119	0x3cd02654	0.025408901
120	0x3d85193b	0.06498953
121	0x3e0cb965	0.13742597
122	0xbc1fc2f7	-0.009751073
123	0xbe0c22b9	-0.1368512
124	0x3d753d43	0.059872877
125	0x3db5f279	0.088841386
126	0x3d5522b4	0.05203505
127	0xbce79537	-0.028269393
128	0xbc39ec8d	-0.011347902
129	0x3cd90d47	0.026495589
130	0xbdd286d7	-0.10279625
131	0xbb8b6548	-0.004254017
132	0xbd61dbe7	-0.055141356
133	0x3db6805a	0.089112
134	0x3d165273	0.036699723
135	0x3d79cf0a	0.060988463
136	0x3d6c51a4	0.057695046
137	0x3d969f17	0.07354563
138	0x3da62c7b	0.08113953
139	0xbcc02f1c	-0.023459964
140	0xbd07a555	-0.033116657
141	0x3e11d143	0.14239983
142	0xbe18a161	-0.14905311
143	0x3dbd6a2f	0.092487685
144	0x3dda1c82	0.10649969
145	0x3e18a5c3	0.14906983
146	0xbd6fa014	-0.05850227
147	0xbd4ed7b5	-0.050498683
148	0xbc10ed42	-0.008845629
149	0xbdea6043	-0.11444142
150	0xbdad3e63	-0.08459165
151	0xbd332f9c	-0.043746576
152	0xbc51feb2	-0.012817072
153	0x3da7b4bb	0.081887685
154	0x3d87fa3f	0.066395275
155	0x3ae4ea42	0.0017464834
156	0xbd47e572	-0.0488028
157	0x3cbfc5fc	0.023409836
158	0x3d43dbc8	0.04781702
159	0xbd2dd994	-0.042443827
160	0x3a201365	0.00061064056
161	0xbd96dea1	-0.07366682
162	0x3c0113cd	0.007878256
163	0x3dcdc5f5	0.10047523
164	0xbde7a9f2	-0.11311711
165	0x3de8f58b	0.113749586
166	0xbdd56853	-0.10420289
167	0x3bc16c26	0.005902785
168	0xbcca1c77	-0.024671776
169	0x3d32b6bc	0.0436313
170	0x3d626574	0.055272534
171	0x3d817680	0.0632143
172	0x3ca3c085	0.019989261
173	0x3d353436	0.044239245
174	0x3daba55d	0.0838115
175	0xbd3d5205	-0.046220798
176	0x3db239f6	0.087024614
177	0xbd2952fd	-0.04133891
178	0x3d144b25	0.036204476
179	0xbd8556da	-0.06510706
180	0x3dd1d0c2	0.102448955
181	0x3df8692c	0.12129435
182	0xbd89fc80	-0.06737614
183	0x3d812d90	0.063075185
184	0x3c8d24a1	0.01722938
185	0x3de4ada0	0.11165929
186	0x3d9ee358	0.07758206
187	0x3d05e694	0.0326906
188	0xbd900bdf	-0.07033514
189	0xbd00a104	-0.031403556
190	0x3c22a1c3	0.009926262
191	0xbd949339	-0.07254643
192	0xbe0821dd	-0.13294168
193	0xbdb8ff00	-0.090330124
194	0xbca363bc	-0.019945018
195	0x3babf14c	0.0052472707
196	0xbccf66c1	-0.025317552
197	0xbd82a2e2	-0.06378724
198	0x3cc806a7	0.024417235
199	0x3d580f37	0.052748885
200	0xbd55fc03	-0.05224229
201	0x3dcb49ff	0.09926223
202	0xbc6b250e	-0.014352096
203	0x3ded7ac7	0.115956835
204	0xbdc2687a	-0.094925836
205	0xbd8cdf99	-0.06878585
206	0x3e01fec7	0.12694846
207	0x3ccef4e1	0.025263252
208	0xbe27d76c	-0.1639077
209	0xbd80acff	-0.062829964
210	0xbda8af8b	-0.08236607
211	0x3dd66e02	0.10470201
212	0x3cec727d	0.028863186
213	0xbdc582da	-0.096440986
214	0xbe6f0379	-0.23341168
215	0x3cd2b770	0.025722235
216	0xbe1047bc	-0.14089864
217	0xbcf9a744	-0.030475266
218	0x3bd92c27	0.006627578
219	0xbda3698d	-0.079791166
220	0x3aca954c	0.0015455871
221	0xbd99a6c9	-0.07502515
222	0xbd5faa66	-0.054605864
223	0xbb55bd5a	-0.0032614083
224	0xbd267c06	-0.04064562
225	0xbd40617e	-0.046967976
226	0x3d6bd311	0.057574335
227	0x3e11833c	0.14210218
228	0xbc1203f6	-0.008912077
229	0xbd3e8bef	-0.04652017
230	0x3dba8532	0.09107436
231	0x3cc72804	0.024311073
232	0x3b835181	0.0040075188
233	0x3deecf6a	0.11660655
234	0xbcc62892	-0.024189267
235	0x3da4c5e2	0.08045556
236	0x3d8ac934	0.06776658
237	0x3dee8371	0.11646164
238	0x3da2edf9	0.07955546
239	0x3bbde8b9	0.005795565
240	0x3a1eb964	0.0006054847
241	0x3d1f0c43	0.038830053
242	0xbda1c781	-0.078993805
243	0x3d487dcf	0.048948105
244	0xbca335ed	-0.019923175
245	0x3d5c3d66	0.05376949
246	0x3c77177a	0.015081281
247	0xbdd3cf4d	-0.10342274
248	0x3d9372d1	0.07199634
249	0xbd36a726	-0.044593
250	0x3dc19ce3	0.09453752
251	0x3e050f02	0.12994006
252	0x3dddf99b	0.10838624
253	0x3d695a84	0.056971088
254	0xbdd3fd9a	-0.10351105
255	0xbdbd015d	-0.09228776

fc_2.bias f4 [84]
0	0xbd78e641	-0.060766462
1	0x3b983c48	0.004645858
2	0x3dd4abc9	0.10384328
3	0x3dab775e	0.08372377
4	0xbccfae6a	-0.025351722
5	0x3d9855c6	0.07438235
6	0x3dc81d37	0.09771197
7	0x3d8a34f4	0.06748381
8	0xbdb4038c	-0.08789739
9	0x3dbe5d15	0.09295098
10	0xbd5ec17b	-0.054383736
11	0xbc0aa171	-0.008461342
12	0x3db3587e	0.08757113
13	0xbd509fa6	-0.050933503
14	0x3d874aae	0.06606041
15	0x3dba1f33	0.09087982
16	0x3b0975b6	0.0020974702
17	0xbcd74f40	-0.026282907
18	0x3d94df27	0.072691254
19	0x3d9f9698	0.07792395
20	0x3ce5805e	0.028015312
21	0x3d6c4894	0.057686403
22	0x3d85e48f	0.06537735
23	0x3d832727	0.06403952
24	0xbd22af3a	-0.03971789
25	0x3d1a7f8b	0.03771929
26	0x3d921866	0.0713356
27	0xbc685700	-0.014180899
28	0xbb0f7d76	-0.002189485
29	0xbd9dd64e	-0.07706891
30	0xbd77cadd	-0.0604962
31	0xbbc06400	-0.005871296
32	0x3d12dccd	0.035855103
33	0x3d337d7a	0.043820836
34	0xbc98c673	-0.018649315
35	0x3d3b0167	0.045655634
36	0xbcbb9413	-0.022897756
37	0xbd404847	-0.04694393
38	0xbc7e9edf	-0.0155408075
39	0x3d963503	0.0733433
40	0xbd6eb33c	-0.0582764
41	0xbcd31b85	-0.025769958
42	0x3e03d277	0.12873255
43	0xbd60c5ba	-0.054876067
44	0xbdba82d3	-0.09106984
45	0xbdbea47a	-0.09308715
46	0x3df38902	0.118913665
47	0xbd3b57cc	-0.045738026
48	0xbd8e5123	-0.06949069
49	0x3dddc6c1	0.10828925
50	0xbbee6b83	-0.007276
51	0x3cf5d9de	0.030011114
52	0x3c18ad6d	0.009318692
53	0x3cb406d7	0.021975918
54	0x3de9f289	0.11423213
55	0x3d8a3d0d	0.06749926
56	0xbb5dffd5	-0.0033874412
57	0x3de787db	0.11305209
58	0xbdb018b0	-0.08598459
59	0xbd885c8d	-0.06658278
60	0x3de0665d	0.10957024
61	0x3de75e88	0.11297327
62	0xbc6b4b72	-0.014361249
63	0x3d175b4e	0.03695231
64	0x3d34d0ca	0.04414443
65	0xbd281126	-0.04103198
66	0x3b407fd1	0.002937306
67	0xbb409800	-0.0029387474
68	0x3dcaba1d	0.098987795
69	0xbd1260fc	-0.035737023
70	0x3db8de75	0.09026805
71	0xbdaf5e34	-0.0856289
72	0xbc7d5b7c	-0.015463706
73	0xbcfb9206	-0.030709278
74	0x3cc6bd03	0.02426005
75	0xbcaf19a3	-0.02137453
76	0x3d133ce6	0.03594675
77	0x3d166826	0.036720417
78	0x3cf10dd4	0.02942554
79	0x3c9ee8bc	0.019398086
80	0x3d84ab7d	0.06478021
81	0xbd0da2b2	-0.034578986
82	0x3d8ea64c	0.06965312
83	0x3d70c997	0.058786

fc_3.weight f4 [10, 84]
0	0x3d22fbec	0.039791033
1	0x3dbebdb0	0.09313524
2	0xbd8c70fc	-0.068574876
3	0xbe2063cb	-0.15663068
4	0x3d9c9b66	0.076468274
5	0xbdb1582b	-0.08659395
6	0xbdfb812e	-0.122804984
7	0xbe26f900	-0.16305923
8	0x3d429186	0.047502063
9	0x3dfea1f0	0.12433231
10	0xbdbeafc1	-0.09310866
11	0x3d879307	0.0661984
12	0xbd01bff1	-0.03167719
13	0xbcc913a9	-0.024545508
14	0x3e40fc59	0.18846263
15	0xbe02f661	-0.12789299
16	0xbb4b580a	-0.0031027817
17	0x3d2de172	0.04245133
18	0xbe1473c4	-0.14497286
19	0xbdd89d09	-0.10576827
20	0xbcbfec5d	-0.023428136
21	0x3e16535d	0.14680238
22	0xbe45fb7c	-0.19334215
23	0x3deec57b	0.1165876
24	0x3d9c010f	0.076173894
25	0xbde96b1a	-0.11397381
26	0xbd241c18	-0.040065855
27	0xbc9b3928	-0.018948153
28	0xbdb06652	-0.08613266
29	0x3d78748b	0.06065802
30	0x3de723e8	0.112861454
31	0x3b566a4e	0.003271717
32	0x3ca48adb	0.020085743
33	0x3e1abf42	0.15112022
34	0xbc7f807f	-0.015594601
35	0x3d9cbdbe	0.07653378
36	0xbe0f7b7d	-0.14011951
37	0xbd3fc916	-0.04682263
38	0x3dfff392	0.12497629
39	0xbe66c4dc	-0.22536033
40	0xbdf0bd8f	-0.117549054
41	0x3d24a13c	0.040192828
42	0xbc9fe853	-0.01951996
43	0xbe4b42bc	-0.19849676
44	0xbe3072c0	-0.17231274
45	0xbdb22e44	-0.08700231
46	0x3dc2cec4	0.09512094
47	0xbc5249ac	-0.012834948
48	0x3d004798	0.031318277
49	0x3d323d98	0.04351577
50	0x3dea87d7	0.11451691
51	0xbdd8f632	-0.10593833
52	0x3dc2e96e	0.095171794
53	0x3d8cf3d0	0.06882441
54	0x3c80dc52	0.015730057
55	0xbcffff37	-0.031249626
56	0xbd982023	-0.074280046
57	0xbccfff09	-0.025390165
58	0x3d1c1848	0.038109094
59	0xbd9d95e5	-0.07694606
60	0x3e21e337	0.15809332
61	0xbe03a281	-0.12854959
62	0x3bc751b6	0.0060827387
63	0x3de0330d	0.10947237
64	0xbe1f533b	-0.15559094
65	0xbea21d83	-0.3166314
66	0xbd955374	-0.07291308
67	0xbde7e6ae	-0.113232955
68	0xbe80bda2	-0.25144678
69	0xbd5c30bf	-0.053757425
70	0xbe09ec99	-0.13469161
71	0x3dbbdfc8	0.09173542
72	0x3df7a3be	0.12091778
73	0xbd1fd9df	-0.039026137
74	0x3dcd3e02	0.10021593
75	0xbe2364dd	-0.15956445
76	0xbd84ac88	-0.0647822
77	0xbd1dca83	-0.03852321
78	0xbd1fb9a5	-0.038995404
79	0x3dc13561	0.09434009
80	0xbde02fef	-0.109466426
81	0xbe2e20c0	-0.1700468
82	0xbe0d1ff0	-0.13781714
83	0x3dab9f2e	0.083799705
84	0xbd683fa1	-0.056701306
85	0xbdbc1962	-0.09184529
86	0xbd153d8c	-0.03643565
87	0x3b8384f6	0.004013653
88	0x3d186983	0.03721
89	0x3ccea625	0.025225708
90	0x3d626e6d	0.05528109
91	0xbd87d71f	-0.06632828
92	0x3d8ebc76	0.0696954
93	0xbe1ce83f	-0.1532297
94	0xbdd5aa38	-0.10432857
95	0xbe3306e0	-0.17483091
96	0xbe11715a	-0.14203396
97	0x3b5eed47	0.003401594
98	0x3d84c62b	0.0648311
99	0xbdeb8d8a	-0.11501606
100	0xbd6d3ea9	-0.057921086
101	0xbe87cdb2	-0.2652412
102	0x3e31095d	0.17288728
103	0x3e0263aa	0.12733331
104	0xbd5b25a1	-0.053502683
105	0xbd4a41d0	-0.04937917
106	0xbe1c4df9	-0.15264119
107	0xbe026e19	-0.12737311
108	0x3b74476d	0.0037274018
109	0xbd23e06f	-0.04000896
110	0xbd9929b6	-0.07478659
111	0xbe0c1e80	-0.1368351
112	0xbdb1d905	-0.08683971
113	0x3db1debd	0.08685062
114	0xbaee57dc	-0.0018184143
115	0x3da973d6	0.08274047
116	0xbd3956d0	-0.045248806
117	0x3e1cdbad	0.15318175
118	0xbe794072	-0.2434099
119	0x3e02c63e	0.12770936
120	0x3e31d6c1	0.17367078
121	0x3d1f151a	0.038838483
122	0x3c78f220	0.015194446
123	0x3e0ea5ff	0.1393051
124	0x3e19b303	0.15009694
125	0xbe0aea13	-0.13565855
126	0x3d5bdc47	0.05367687
127	0x3d845445	0.06461386
128	0xbe36ea42	-0.178628
129	0x3b565a60	0.0032707676
130	0x3dd64982	0.10463239
131	0x3d88bace	0.06676255
132	0x3e06bd16	0.13158068
133	0x3d84cc93	0.06484332
134	0x3c0eb9a2	0.0087112505
135	0x3e046d08	0.12932217
136	0xbd363fb6	-0.044494353
137	0x3d4620e3	0.048371207
138	0xbdcfd324	-0.10147694
139	0xbe2dc337	-0.16969
140	0x3e026c85	0.1273671
141	0x3d544f0d	0.0518332
142	0xbca5cc8b	-0.020239135
143	0x3d1a6beb	0.037700575
144	0xbd5b7b11	-0.053584162
145	0xbccb40f9	-0.024811255
146	0xbe3ee613	-0.18642454
147	0x3c01d6ad	0.007924718
148	0xbdf2f60e	-0.118633375
149	0xbdbabadb	-0.09117671
150	0x3da103ae	0.0786203
151	0x3d1cf01c	0.038314924
152	0x3dc869e6	0.097858235
153	0x3e7ef578	0.24898326
154	0x3e139cac	0.14415234
155	0x3d37adb2	0.044843383
156	0xbe215829	-0.15756287
157	0xbd61504e	-0.055008225
158	0xbd17ca02	-0.037057884
159	0xbe3f7c81	-0.18699838
160	0xbe7b12d6	-0.24518904
161	0x3d9926dd	0.07478116
162	0xbe08af30	-0.13348079
163	0x3d184412	0.037174292
164	0xbd96a643	-0.07355931
165	0xbb04c1e5	-0.0020257172
166	0xbda30da9	-0.0796159
167	0x3d9c2892	0.07624926
168	0xbdc426a4	-0.095776826
169	0xbe14536b	-0.14484946
170	0xbe6e949d	-0.23298879
171	0xbe1415cc	-0.1446144
172	0x3d654cc4	0.055981413
173	0xbe050244	-0.12989146
174	0x3c034161	0.008011193
175	0xbd23b1bb	-0.03996442
176	0xbc3a36eb	-0.0113656325
177	0xbdc56a49	-0.09639413
178	0xbcbec87a	-0.023288954
179	0x3c8a4e62	0.016883079
180	0xbe1416e3	-0.14461856
181	0x3dd851b3	0.10562458
182	0x3d48ddf3	0.049039792
183	0xbd9aaddd	-0.07552693
184	0xbd8f68fd	-0.07002447
185	0x3d413009	0.04716495
186	0x3a4eb7cd	0.0007885665
187	0x3ded5429	0.11588318
188	0x3d162e31	0.036665145
189	0x3ddd3a08	0.10802084
190	0x3d75f3af	0.060046848
191	0xbd423375	-0.047412354
192	0x3e2f3952	0.1711171
193	0xbe00312a	-0.12518755
194	0xbcbda3de	-0.023149427
195	0xbd82ca95	-0.06386296
196	0x3e0349be	0.12821099
197	0xbdc4387d	-0.09581087
198	0x3df3381a	0.11875935
199	0x3d43506e	0.047684126
200	0xbb866acb	-0.004102086
201	0xbe8c976b	-0.27459273
202	0x3dd33993	0.10313716
203	0x3d699576	0.057027303
204	0xbe42a243	-0.1900721
205	0xbd3a7c50	-0.04552871
206	0xbcd30844	-0.025760777
207	0x3d98bf2a	0.07458337
208	0x3d3e6718	0.046485037
209	0x3e1fdb8b	0.15611093
210	0x3c91db95	0.0178049
211	0x3da95536	0.08268206
212	0x3d954e12	0.07290281
213	0xbd785f86	-0.060637973
214	0xbd85f44a	-0.06540735
215	0xbdc5d4a6	-0.096597
216	0x3e362027	0.17785703
217	0xbe235b54	-0.15952808
218	0x3d01412c	0.031556293
219	0x3e3fcc8d	0.18730374
220	0xbd8a40a5	-0.06750611
221	0x3d7b4c4d	0.061352063
222	0xbd8ae7ea	-0.06782515
223	0xbd920706	-0.07130246
224	0xbd7075cb	-0.058706086
225	0xbe8d2175	-0.27564588
226	0xbb341703	-0.0027479536
227	0xbe058840	-0.13040257
228	0xbcff6159	-0.031174349
229	0xbcbadfa7	-0.022811724
230	0x3c3a2d97	0.0113634085
231	0x3e1a9ec0	0.15099621
232	0xbdde5341	-0.10855723
233	0x3da70863	0.081558965
234	0xbd89cd11	-0.067285664
235	0xbd3ce9e7	-0.046121504
236	0x3dfd535c	0.12369415
237	0xbe2b83d6	-0.1674951
238	0xbe30d82e	-0.17269966
239	0xbd626731	-0.055274192
240	0x3df40db9	0.1191668
241	0x3c86c154	0.016449608
242	0xbe345793	-0.17611532
243	0xbccee36d	-0.02525493
244	0xbdd058d4	-0.101731926
245	0xbdc124a1	-0.094308145
246	0xbcc98e6f	-0.02460405
247	0xbdcfd1f6	-0.10147469
248	0xbd8748b8	-0.06605667
249	0xbdbc71aa	-0.09201367
250	0x3d9a424b	0.07532176
251	0x3d99d677	0.07511609
252	0xbd153e79	-0.03643653
253	0x3e128ab7	0.14310728
254	0xbe20d87b	-0.15707581
255	0xbcd16361	-0.025560083

fc_3.bias f4 [10]
0	0x3da6c4ea	0.08143027
1	0xbd58c243	-0.052919637
2	0xbd8e9257	-0.06961506
3	0xbd7198c4	-0.05898358
4	0xbd17cc3d	-0.03706001
5	0xbdc904e9	-0.0981539
6	0xbe15c8be	-0.14627358
7	0xbddfbdd5	-0.109248795
8	0x3dfc693b	0.123247586
9	0x3d2e7dbc	0.04260038
