CNN/model/lenet_model.pt (torch, 250885 bytes, 10 tensors)

conv1.weight f4 [6, 1, 5, 5]
0.18122353 0.24793476 0.021735882 -0.13389273 -0.09705456 0.10119296 0.30577937 0.014329678
-0.17833629 -0.16038729 0.23342259 0.12137852 0.06392637 -0.11133391 -0.020005668 0.22172073
0.25719368 -0.13149227 -0.23818558 -0.35493875 0.14445336 -0.088777475 0.076371275 -0.3268225
-0.12819718 0.0210921 0.26801044 0.022273086 0.24415237 -0.15876928 -0.117589794 0.009850886
0.23787686 0.14463359 0.21498951 -0.056356024 -0.19853829 0.054564524 0.23917317 0.19261049
-0.054524958 -0.19298841 -0.12041714 -0.018197732 0.28531164 -0.20558183 0.014121056 0.12258092
0.15388826 -0.0473534 -0.44950786 -0.31604958 -0.036402967 0.0017446587 0.19946867 -0.38150015
-0.111313865 0.03924976 0.27526498 0.09949104 -0.3654214 0.027594108 0.17622635 0.29403952
-0.0320311 -0.043674905 0.08446925 0.2085003 0.1585086 -0.0047634947 -0.06055516 -0.059950974
0.24574766 0.16314001 0.08723272 -0.073873125 0.06133875 0.059763417 0.045106538 0.045045145
0.3132686 0.15778258 0.08637469 0.12595299 0.27092513 0.1563117 0.23934971 0.32743126
0.13601269 0.36845255 -0.18827896 -0.18010306 -0.032262824 -0.12897432 -0.04223069 -0.4322154
-0.3124419 -0.4539822 -0.4330286 -0.24023734 0.059776638 0.094027646 -0.028390829 -0.10905107
-0.55955505 0.06641674 -0.021640837 0.04523059 -0.04791019 -0.57455635 -0.18121457 0.31273052
0.16520226 0.40988627 -0.0010633998 -0.07073898 0.07045264 0.30427063 0.15940095 0.02221265
-0.27464473 0.055288747 0.15586343 -0.09160447 0.22504845 -0.1282274 -0.24506386 0.1291603
-0.08560113 0.1889746 0.079734474 0.059244897 0.0019530182 0.09313757 0.24144621 0.007546621
0.2857311 0.12871505 0.19156152 0.18260543 0.078118205 -0.09727759 0.16966814 0.1103773
-0.19312721 0.051868882 -0.17603013 -0.0830691 -0.21915922 -0.2236953
00000000: a992 393e 9ce2 7d3e 730f b23c 2d1b 09be
00000010: 8bc4 c6bd 413e cf3d 1d8f 9c3e 07c7 6a3c
00000020: ca9d 36be 913c 24be 5506 6f3e 4d95 f83d
00000030: d4eb 823d 0803 e4bd ede2 a3bc c20a 633e
00000040: e4ae 833e e9a5 06be ece6 73be 88ba b5be
00000050: 95eb 133e f7d0 b5bd 8b68 9c3d 4755 a7be
00000060: 1f46 03be 57c9 ac3c aa38 893e 0c76 b63c
00000070: 1403 7a3e 6a94 22be ebd2 f0bd 9c65 213c
00000080: fe95 733e d41a 143e 3626 5c3e 93d5 66bd
00000090: 9f4d 4bbe 0d7f 5f3d d0e9 743e af3b 453e
000000a0: 9055 5fbd c19e 45be 439d f6bd 6913 95bc
000000b0: 5e14 923e 0b84 52be 005c 673c b50b fb3d
000000c0: e294 1d3e a4f5 41bd e525 e6be 40d1 a1be
000000d0: 471b 15bd 08ad e43a 8441 4c3e fd53 c3be
000000e0: 86f8 e3bd 5bc4 203d 88ef 8c3e f5c1 cb3d
000000f0: 8418 bbbe 0a0d e23c ae74 343e 598c 963e
00000100: 0b33 03bd 75e4 32bd 37fe ac3d 1a81 553e
00000110: 1450 223e 1717 9cbb b008 78bd 278f 75bd
00000120: 46a5 7b3e 2d0e 273e 11a7 b23d cb4a 97bd
00000130: 573e 7b3d 7cca 743d a2c1 383d 4281 383d
00000140: be64 a03e c291 213e 37e5 b03d d2f9 003e
00000150: b3b6 8a3e 2d10 203e 1718 753e 12a5 a73e
00000160: e946 0b3e d0a5 bc3e 33cc 40be f06c 38be
00000170: 0626 04bd d811 04be 17fa 2cbd 564b ddbe
00000180: 62f8 9fbe 5b70 e8be edb5 ddbe c700 76be
00000190: 59d8 743d 9191 c03d e293 e8bc 2b56 dfbd
000001a0: 003f 0fbf 8005 883d 2048 b1bc b643 393d
000001b0: 7a3d 44bd 2016 13bf 5090 39be 371e a03e
000001c0: c82a 293e 9ddc d13e c761 8bba 99df 90bd
000001d0: 7949 903d 5cc9 9b3e 013a 233e 4ef7 b53c
000001e0: 3c9e 8cbe 7476 623d aa9a 1f3e 209b bbbd
000001f0: 1a73 663e 0b4e 03be 05f2 7abe 9942 043e
00000200: a54f afbd 8f82 413e d44b a33d c7aa 723d
00000210: 6bfc ff3a e9be be3d ad3d 773e a549 f73b
00000220: 594b 923e e1cd 033e b428 443e ebfc 3a3e
00000230: 70fc 9f3d 7939 c7bd 7cbd 2d3e 7e0d e23d
00000240: 24c3 45be 7774 543d 3e41 34be 2220 aabd
00000250: 466b 60be 6110 65be

conv1.bias f4 [6]
0.0021942947 -0.17739548 0.049383555 -0.011498065 -0.11400095 0.25153685
00000000: 28ce 0f3b 29a7 35be 6946 4a3d 6162 3cbc
00000010: 5479 e9bd 70c9 803e

conv2.weight f4 [16, 6, 5, 5]
0.16198947 0.04575069 0.06843989 0.062209014 -0.06431801 0.15768492 -0.009046526 0.020317825
0.07950237 0.03524744 0.047848538 0.041866705 0.081939064 -0.038295325 -0.029141126 0.16117686
0.025262104 -0.0015194953 0.0412629 -0.049167793 0.028915029 0.02056698 0.021737438 -0.060039464
-0.05960264 0.08472752 0.062620305 0.0825707 -0.093210176 -0.04743632 0.022818455 0.116576165
0.011334254 -0.02603665 -0.019371599 -0.033174895 -0.02290467 0.042078096 -0.026478611 -0.03647099
-0.040982574 -0.0161152 -0.0102822045 1.8696242e-05 -0.14664432 0.018340027 0.020959357 -0.023315655
0.038797986 -0.14476073 -0.0021906968 -0.026273794 0.13175976 0.071295954 0.08518981 0.1053481
0.13294184 0.17564765 0.03125186 0.023940902 0.015737768 0.09370691 0.17911945 0.1120898
0.049961213 -0.02104969 0.11163701 0.101111196 0.038913023 -0.092406176 0.11716766 0.059538335
0.06921828 -0.047489457 -0.24129818 -0.057164453 -0.26403198 -0.2806551 -0.3179595 -0.11582944
-0.19623786 -0.21611838 -0.3571477 -0.38051733 -0.055418458 0.04058753 -0.11220599 -0.08483807
-0.06481768 0.034531582 -0.031534903 -0.06646522 -0.10333242 0.028750554 0.04716069 -0.062514454
-0.08266019 -0.023859432 0.037876464 0.17762388 0.13613403 0.19958176 0.18989131 -0.0033060946
-0.041685533 0.0077921962 0.0036089825 0.13070588 -0.030184014 -0.1466206 -0.1337737 -0.17659414
-0.051361293 0.06740329 0.061748125 -0.12082915 -0.18184279 -0.07873335 0.06252756 -0.0060712583
-0.17465632 -0.05299696 0.1124021 0.067490414 -0.024650412 -0.12663439 -0.13530295 -0.085337475
-0.011419505 0.020874267 -0.04726127 -0.06419945 0.05237606 -0.030851915 0.1277057 0.00110428
-0.010339422 0.022948619 0.01049427 0.03981495 0.042492032 0.0085737035 -0.05823808 0.084532894
0.058349606 -0.06058129 0.0016448895 -0.08192458 -0.029109195 0.09436072 -0.08569656 -0.02624724
-0.08244249 -0.1724512 -0.031325225 -0.11297438 -0.10524629 -0.07296362 0.045020036 0.030248798
-0.04350837 0.012957845 0.0015939928 -0.01330764 -0.031386152 -0.024563158 -0.019078363 0.025831997
-0.037258826 -0.10908978 0.07050242 0.12742083 0.09145444 -0.010449535 -0.06704949 -0.091998935
-0.14257951 -0.14513803 -0.09668317 -0.08425176 -0.045989998 0.031196076 0.09511377 0.031105
0.033151463 0.022592379 0.107703425 -0.066413015 0.027012093 -0.07617604 0.030487916 0.04592991
-0.031718716 -0.073423706 0.026036894 -0.0005518184 -0.0059133926 -0.09169699 0.01426898 -0.043501537
-0.04974907 0.0011592831 0.013010853 0.047969036 0.06546261 -0.12713379 -0.16516262 -0.13475598
-0.12908374 -0.0017575537 -0.19739614 -0.19058819 -0.09692103 0.029932065 -0.039724823 0.0049880766
0.01901887 0.087137 -0.04951851 -0.009364706 -0.045584127 -0.08505726 0.07639198 0.09907726
-0.043958973 0.1769675 0.27475825 0.09723206 -0.11542721 -0.086567044 0.14192851 0.24308886
0.045226276 -0.07359783 0.020928754 0.08386296 0.02872078 0.043309923 -0.097162545 0.0196657
0.076167375 0.07054 0.10490396 -0.016579632 0.021644663 0.13378267 0.1739896 -0.033298977
0.015912509 0.021651538 0.037869304 0.10315771 0.025397195 0.023936406 -0.047727797 0.0016421962
00000000: 91e0 253e 1365 3b3d 372a 8c3d e1ce 7e3d
00000010: 29b9 83bd 2878 213e e137 14bc 9171 a63c
00000020: 23d2 a23d 9f5f 103d d4fc 433d 6c7c 2b3d
00000030: abcf a73d 8fdb 1cbd 5fb9 eebc 8c0b 253e
00000040: 79f2 ce3c cd29 c7ba 4903 293d 2b64 49bd
00000050: 36df ec3c 157c a83c b612 b23c f1eb 75bd
00000060: e621 74bd 9f85 ad3d 133f 803d d41a a93d
00000070: fae4 bebd 964c 42bd c5ed ba3c 7cbf ee3d
00000080: 4fb3 393c d04a d5bc 30b1 9ebc 66e2 07bd
00000090: 93a2 bbbc 155a 2c3d ace9 d8bc 9b62 15bd
000000a0: 58dd 27bd 0604 84bc b176 28bc e0d5 9c37
000000b0: ee29 16be d33d 963c f5b2 ab3c 7900 bfbc
000000c0: a3ea 1e3d 283c 14be cb91 0fbb 243c d7bc
000000d0: 08ec 063e 9d03 923d ff77 ae3d bfc0 d73d
000000e0: e821 083e fadc 333e f301 003d b61f c43c
000000f0: 7eec 803c 69e9 bf3d 176b 373e 568f e53d
00000100: 21a4 4c3d 6670 acbc f2a1 e43d 6313 cf3d
00000110: 4363 1f3d 733f bdbd 99f5 ef3d 78de 733d
00000120: 50c2 8d3d 4e84 42bd df16 77be 4625 6abd
00000130: 332f 87be 06b2 8fbe 96cb a2be fc37 edbd
00000140: 94f2 48be 234e 5dbe 10dc b6be 2bd3 c2be
00000150: 77fe 62bd 1c3f 263d 41cc e5bd 95bf adbd
00000160: 22bf 84bd fd70 0d3d be2a 01bd eb1e 88bd
00000170: f39f d3bd 4886 eb3c 912b 413d 9407 80bd
00000180: bf49 a9bd db74 c3bc 5a24 1b3d 09e3 353e
00000190: b866 0b3e 295f 4c3e de72 423e 10ab 58bb
000001a0: 73be 2abd ae55 ff3b ae84 6c3b c3d7 053e
000001b0: 7744 f7bc b623 16be f9fb 08be 18d5 34be
000001c0: 3860 52bd bc0a 8a3d 9aeb 7c3d 4675 f7bd
000001d0: ff34 3abe f33e a1bd 730e 803d 68f1 c6bb
000001e0: 1bd9 32be 5713 59bd 1233 e63d 6a38 8a3d
000001f0: a9ef c9bc 72ac 01be db8c 0abe 6ac5 aebd
00000200: e018 3bbc 8300 ab3c 0995 41bd 007b 83bd
00000210: 4888 563d 28bd fcbc 48c5 023e 7dbd 903a
00000220: ae66 29bc befe bb3c 29f0 2b3c 0015 233d
00000230: 200c 2e3d b878 0c3c 0e8b 6ebd 951f ad3d
00000240: ffff 6e3d 1624 78bd 5599 d73a 13c8 a7bd
00000250: 6876 eebc 3140 c13d ae81 afbd 7404 d7bc
00000260: 9cd7 a8bd 0c97 30be e14e 00bd 1d5f e7bd
00000270: 5e8b d7bd f36d 95bd ee66 383d 54cc f73c
00000280: d535 32bd 244d 543c 86ed d03a 4a08 5abc
00000290: c48e 00bd ad38 c9bc 3a4a 9cbc a09d d33c
000002a0: b69c 18bd 766a dfbd 9363 903d 9b7a 023e
000002b0: 774c bb3d 8734 2bbc 3e51 89bd f069 bcbd
000002c0: 5d00 12be 109f 14be d301 c6bd 308c acbd
000002d0: 0260 3cbd ea8e ff3c 02cb c23d eacf fe3c
000002e0: d4c9 073d a713 b93c 9d93 dc3d 8c03 88bd
000002f0: 7748 dd3c 2f02 9cbd cbc1 f93c 0021 3c3d
00000300: 7ceb 01bd 2b5f 96bd 534b d53c e8a7 10ba
00000310: 22c5 c1bb a2cb bbbd 71c8 693c ab2e 32bd
00000320: aec5 4bbd 16f3 973a 792b 553c 2e7b 443d
00000330: 4311 863d 5c2f 02be 6420 29be 79fd 09be
00000340: 872e 04be b75d e6ba 3722 4abe 8d29 43be
00000350: 887e c6bd 1734 f53c 7fb6 22bd 0573 a33b
00000360: 76cd 9b3c e274 b23d ecd3 4abd 6d6e 19bc
00000370: 6cb6 3abd 8032 aebd 6673 9c3d 05e9 ca3d
00000380: 530e 34bd f836 353e 1dad 8c3e 9a21 c73d
00000390: 1a65 ecbd 104a b1bd b555 113e 49ec 783e
000003a0: 303f 393d 76ba 96bd c772 ab3c 58c0 ab3d
000003b0: d747 eb3c bf65 313d 28fd c6bd f619 a13c
000003c0: a4fd 9b3d 4777 903d e3d7 d63d 02d2 87bc
000003d0: 2650 b13c 53fe 083e 542a 323e 8264 08bd
000003e0: f35a 823c 915e b13c d81c 1b3d 5944 d33d
000003f0: c70d d03c 4816 c43c 397e 43bd f63e d73a

conv2.bias f4 [16]
0.13507487 0.10886537 0.023985457 -0.014955688 -0.022773063 0.03459237 0.008710256 0.17254663
0.057315268 0.06490426 0.057233952 -0.014581386 0.12389833 0.10260873 0.13032927 0.013043425
00000000: 1151 0a3e cff4 de3d 267d c43c b408 75bc
00000010: 938e babc bbb0 0d3d 76b5 0e3c 10b0 303e
00000020: 6ac3 6a3d 86ec 843d 266e 6a3d c4e6 6ebc
00000030: 68be fd3d 8724 d23d 0975 053e 17b4 553c

fc_1.weight f4 [120, 400]
-0.0100388285 0.07693855 -0.09115418 0.008540403 -0.013271887 -0.0005530061 0.018883765 -0.03607912
-0.04213904 -0.020895325 0.08695875 -0.027427996 0.014856553 0.0374419 0.026178785 0.09302874
0.038254116 0.038599268 -0.0059239403 -0.0315861 0.09552096 0.045854345 0.031234583 -0.023489587
0.087141536 0.07176219 0.052997604 -0.03956026 0.060333986 0.0133306775 0.0095935 -0.05502362
0.022211928 0.0156178 0.046937983 0.032232333 0.031781677 0.03737448 0.08170115 -0.021023061
0.01708909 0.09261758 0.043566592 0.024609061 -0.06593675 0.022802345 -0.005223543 -0.08619355
0.030302567 0.038672477 0.021325454 0.058127083 0.09211999 -0.016955435 0.060009494 -0.008572289
0.009495358 -0.04801705 0.021779407 0.07561998 -0.024301082 -0.007425329 -0.006426116 -0.037385732
-0.06989511 0.00026967362 0.09488108 -0.045244455 -0.12692931 -0.039050177 -0.19616243 -0.15192352
-0.060182907 0.023643618 0.08961904 0.043896217 0.0015246123 -0.0021819372 0.042390723 0.101329036
-0.076817594 0.083109915 0.075272165 0.048981566 -0.009150034 0.039275482 0.11604892 0.060034584
0.07984058 0.03805254 0.02024441 0.034634035 -0.038576014 0.07736969 -0.019166252 -0.018817687
-0.055998523 -0.024656875 -0.0002414412 0.071753375 -0.38314396 -0.11341527 -0.1046629 -0.009872095
-0.047741476 0.17265725 0.042360004 -0.088273585 -0.04737029 0.02291606 -0.18066494 -0.110883005
-0.014295467 0.07014888 0.007679567 0.032407027 -0.051369812 0.08516574 -0.020497818 -0.030332748
-0.11454674 -0.08869957 0.065200806 -0.06080898 -0.002534431 0.058628187 0.12008605 -0.021356832
0.005057774 0.013104605 0.08673771 -0.042139966 -0.0046125553 -0.019646686 0.042717133 0.066104665
-0.008275133 0.08904687 0.02086507 0.09129988 0.06678586 0.039279845 0.025803613 0.039726928
-0.075102605 -0.024516506 -0.01706994 -0.063568376 -0.040660385 0.07065526 -0.04059147 -0.13328023
-0.09089416 0.10872139 0.09424568 -0.20546432 -0.015790356 -0.00396024 -0.06964679 0.016718132
-0.083171986 -0.0009823086 0.03203819 -0.06265656 0.043778446 -0.12520395 -0.08201342 -0.10255765
0.12598692 0.0065259533 -0.12598148 -0.15064596 -0.10574552 -0.030549463 -0.039731685 0.03283476
-0.051628776 -0.07001337 -0.2288703 -0.15478036 -0.050788045 -0.058970947 -0.0618229 0.0046470775
0.015071984 -0.06592065 -0.0026014987 0.032395627 0.06956676 0.042117298 -0.024154797 -0.025096565
0.06260146 0.08340939 -0.0056009456 0.057821862 0.06759212 0.026850756 -0.050643913 -0.0014236912
0.01824629 0.057075966 0.10908122 0.025974963 0.033570006 -0.0033445582 -0.08272222 0.013336786
-0.11741377 -0.030724805 0.13530594 0.05249135 -0.0420266 -0.018021645 0.0738625 0.026102597
0.006027988 0.040267795 0.06883351 -0.10120339 0.112859465 0.06882968 -0.032423675 -0.02624424
-0.027180823 0.041418705 -0.033263545 0.05152323 0.03753135 0.028991377 0.11008911 -0.0036451393
-0.053875536 -0.049276307 0.07595494 0.02082025 0.12906525 0.09159127 -0.0017871374 0.08065319
-0.0052980813 -0.009584721 0.053294435 -0.04504486 -0.014318496 0.030802764 0.063983984 -0.07083856
-0.048160903 0.07020197 0.06447546 0.022758722 -0.09731761 -0.30180225 -0.035362575 0.022866093
00000000: e679 24bc f591 9d3d 0baf babd 0ced 0b3c
00000010: 5472 59bc 9cf7 10ba 20b2 9a3c b3c7 13bd
00000020: fc99 2cbd ac2c abbc 6e17 b23d adb0 e0bc
00000030: e668 733c ae5c 193d e474 d63c da85 be3d
00000040: 59b0 1c3d 441a 1e3d 9d1d c2bb 6d60 01bd
00000050: 7ea0 c33d c4d1 3b3d abdf ff3c 3c6d c0bc
00000060: 4377 b23d 0ef8 923d 0414 593d f009 22bd
00000070: c520 773d ea68 5a3c 0e2e 1d3c 7360 61bd
00000080: caf5 b53c cde1 7f3c 0b42 403d 0d06 043d
00000090: 812d 023d fc15 193d ef52 a73d 8e38 acbc
000000a0: 6bfe 8b3c 49ae bd3d e272 323d f198 c93c
000000b0: d909 87bd fccb ba3c 412a abbb 3e86 b0bd
000000c0: 173d f83c 0867 1e3d b8b2 ae3c aa16 6e3d
000000d0: 68a9 bc3d 20e6 8abc 84cc 753d c972 0cbc
000000e0: 6b92 1b3c 87ad 44bd ba6a b23c a6de 9a3d
000000f0: 1013 c7bc 2d50 f3bb 2b92 d2bb c821 19bd
00000100: 2b25 8fbd fb62 8d39 0351 c23d 4052 39bd
00000110: c2f9 01be 14f3 1fbd cede 48be d791 1bbe
00000120: 5a82 76bd 43b0 c13c 308a b73d 85cc 333d
00000130: 80d5 c73a d5fe 0ebb e5a1 2d3d 9985 cf3d
00000140: 8b52 9dbd 8835 aa3d 4b28 9a3d e5a0 483d
00000150: 06ea 15bc 54df 203d 0eab ed3d d3e6 753d
00000160: 7583 a33d fbdc 1b3d 9bd7 a53c 6bdc 0d3d
00000170: e201 1ebd 0074 9e3d 8b02 9dbc 8d27 9abc
00000180: b55e 65bd 37fd c9bc 612b 7db9 6ff3 923d
00000190: 722b c4be 4446 e8bd 8159 d6bd 91be 21bc
000001a0: 918c 43bd 10cd 303e af81 2d3d c8c8 b4bd
000001b0: 5907 42bd 76ba bb3c 3b00 39be a116 e3bd
000001c0: 8937 6abc 37aa 8f3d e1a4 fb3b 3bbd 043d
000001d0: 2769 52bd 606b ae3d 0aeb a7bc 627c f8bc
000001e0: 7b97 eabd 1fa8 b5bd 0088 853d d612 79bd
000001f0: b218 26bb 1c24 703d adef f53d 86f4 aebc
00000200: afbb a53b b2b4 563c 8aa3 b13d f59a 2cbd
00000210: eb24 97bb 16f2 a0bc 29f8 2e3d e261 873d
00000220: 6c94 07bc 355e b63d 39ed aa3c 6efb ba3d
00000230: 06c7 883d e7e3 203d 1962 d33c b4b8 223d
00000240: 65cf 99bd d7d6 c8bc 42d6 8bbc 2330 82bd
00000250: 818b 26bd b4b3 903d 3e43 26bd 9d7a 08be
00000260: b826 babd 52a9 de3d e103 c13d 3d65 52be
00000270: c75a 81bc e7c4 81bb faa2 8ebd 77f4 883c
00000280: 1356 aabd cfc0 80ba 7a3a 033d 1552 80bd
00000290: 0751 333d 7735 00be a7f6 a7bd bf09 d2bd
000002a0: b702 013e aad7 d53b 4a01 01be ef42 1abe
000002b0: 1b91 d8bd de42 fabc b1bd 22bd be7d 063d
000002c0: b278 53bd 2b63 8fbd fa5c 6abe be7e 1ebe
000002d0: 2007 50bd 858b 71bd 023a 7dbd 8346 983b
000002e0: 7cf0 763c 6801 87bd e87d 2abb 47b1 043d
000002f0: 0479 8e3d 3083 2c3d 48e0 c5bc 5097 cdbc
00000300: 3235 803d 8bd2 aa3d 2388 b7bb 9ed6 6c3d
00000310: bd6d 8a3d 1ef6 db3c fe6f 4fbd 269b baba
00000320: 3e79 953c 7dc8 693d fa65 df3d 72c9 d43c
00000330: b480 093d 6030 5bbb 446a a9bd 8982 5a3c
00000340: a176 f0bd 96b2 fbbc a48d 0a3e 2b01 573d
00000350: 1624 2cbd 21a2 93bc 3945 973d 1dd5 d53c
00000360: 6e86 c53b d8ef 243d 95f8 8c3d b943 cfbd
00000370: dd22 e73d 93f6 8c3d b0ce 04bd 29fe d6bc
00000380: 51aa debc a9a6 293d 5b3f 08bd 060a 533d
00000390: 79ba 193d 537f ed3c 6676 e13d 4ae3 6ebb
000003a0: 98ac 5cbd f4d5 49bd 438e 9b3d 3b8f aa3c
000003b0: ae29 043e 3494 bb3d 613e eaba 802d a53d
000003c0: 879b adbb 3c09 1dbc 444b 5a3d f680 38bd
000003d0: 2098 6abc 1456 fc3c 090a 833d cf13 91bd
000003e0: 5e44 45bd 0dc6 8f3d b60b 843d 8070 ba3c
000003f0: 754e c7bd d385 9abe 59d8 10bd ac51 bb3c

fc_1.bias f4 [120]
0.057446152 -0.031001544 -0.027107012 -0.03416093 -0.043190844 0.05421565 0.06079282 -0.047551733
0.026159793 0.10780484 -0.009364085 0.07995734 0.07214428 0.018313505 -0.019368371 -0.04471418
0.029335812 -0.0044470397 -0.038372874 0.007116082 -0.05990551 -0.044249933 -0.05518321 -0.060824875
0.02942522 -0.015294387 0.03074416 0.0060869507 -0.0070536896 -0.046215944 0.032500558 -0.057697106
0.05796941 0.0844481 -0.02283632 0.026644731 0.012013942 -0.0042808517 0.040262744 0.06883861
0.06985744 0.030249938 0.011098551 -0.049464326 0.001980501 0.006785534 -0.036391277 0.048455328
0.0063181794 -0.0077214735 -0.008646712 0.020302784 0.050604213 -0.051729478 -0.053287767 0.044185366
0.05658177 -0.03484344 0.07580224 0.0017092624 0.06388952 0.07789808 0.015004078 0.03621422
0.012857574 -0.03435373 0.030602887 0.05064334 0.07190236 0.053605366 -0.022667293 0.014348236
-0.038745224 0.02239247 0.012184638 0.012126252 -0.06727361 0.0843221 0.0053350404 0.070655614
-0.0061660367 0.01868441 0.04631915 -0.03382694 0.017244773 -0.017236572 0.033561636 0.08376454
-0.008095006 -0.035163596 0.02862466 0.042547125 0.009819114 0.04310699 -0.013752309 0.041686513
-0.0037948226 -0.00986638 0.029903632 -0.069396004 -0.0038592229 0.0025427972 -0.0072031794 -0.0022941893
-0.0045844284 -0.019910457 0.008921489 -0.05490801 -0.01574321 -0.051470432 -0.008657185 -0.057379164
-0.008666553 0.032506734 0.047608934 -0.014840013 0.032783918 -0.020541977 0.040438134 0.018674357
00000000: a84c 6b3d f3f6 fdbc 860f debc 55ec 0bbd
00000010: e2e8 30bd 3b11 5e3d e401 793d 9bc5 42bd
00000020: 104d d63c c9c8 dc3d d26b 19bc adc0 a33d
00000030: 61c0 933d 3406 963c 6baa 9ebc 3726 37bd
00000040: a851 f03c 79b8 91bb e02c 1dbd 062e e93b
00000050: 7b5f 75bd 6b3f 35bd ca07 62bd 8123 79bd
00000060: 290d f13c 4f95 7abc 2ddb fb3c 0b75 c73b
00000070: a322 e7bb ee4c 3dbd 4e1f 053d cd53 6cbd
00000080: 5571 6d3d 20f3 ac3d 3c13 bbbc 0d46 da3c
00000090: 20d6 443c 6346 8cbb 8cea 243d 42fb 8c3d
000000a0: 6b11 8f3d b8ce f73c b2d6 353c 1b9b 4abd
000000b0: 4bcb 013b 2f59 de3b 050f 15bd 1879 463d
000000c0: bb08 cf3b 6a04 fdbb f0aa 0dbc 0652 a63c
000000d0: 5d46 4f3d 4ae2 53bd 4644 5abd b7fb 343d
000000e0: 49c2 673d ffb7 0ebd 343e 9b3d 5409 e03a
000000f0: 82d8 823d 0789 9f3d aad3 753c 5d55 143d
00000100: 93a8 523c 7fb6 0cbd e8b2 fa3c 646f 4f3d
00000110: 8b41 933d 4d91 5b3d c2b0 b9bc dd14 6b3c
00000120: 50b3 1ebd 6a70 b73c 13a2 473c 30ad 463c
00000130: bfc6 89bd 11b1 ac3d 90d1 ae3b e4b3 903d
00000140: 770c cabb 0c10 993c 26b9 3d3d 1e8e 0abd
00000150: e944 8d3c b633 8dbc ed77 093d be8c ab3d
00000160: eba0 04bc b407 10bd 437e ea3c e545 2e3d
00000170: 59e0 203c f590 303d 5d51 61bc 7abf 2a3d
00000180: 8fb2 78bb 99a6 21bc 76f8 f43c 7e1f 8ebd
00000190: 04eb 7cbb 0fa5 263b a608 ecbb 1c5a 16bb
000001a0: f938 96bb 411b a3bc 702b 123c 39e7 60bd
000001b0: e8f7 80bc a9d2 52bd ded6 0dbc 6a06 6bbd
000001c0: 28fe 0dbc c825 053d 9601 433d 8723 73bc
000001d0: 6e48 063d a647 a8bc 75a2 253d f7fa 983c

fc_2.weight f4 [84, 120]
0.037401184 -0.029959384 0.056180198 -0.058366608 0.007919318 -0.034525525 -0.05258706 -0.07253373
0.12897426 0.011430854 0.0030954569 0.048398525 0.07159508 0.122322604 -0.012132111 0.08826298
0.061346352 -0.04493008 0.09279606 0.03189795 0.0030631693 -0.052686468 -0.058979236 0.16392055
0.053433917 -0.04214396 0.08433582 0.0047576805 0.0129275555 -0.012695844 -0.022531584 0.015811423
-0.03354713 0.09504298 -0.035352785 -0.036210533 0.018630572 0.1215287 0.1083689 0.07806709
0.059766877 -0.008724269 0.09566881 -0.016949365 -0.059069976 0.035933133 -0.07114701 0.1364518
0.08168672 -0.027175916 -0.041187722 0.009957533 0.079118595 0.10250287 -0.08336129 -0.07988066
-0.14959228 0.0053102737 0.01340544 0.1507363 0.02363664 0.06808124 -0.0162297 0.089940846
-0.028421478 0.0031742472 -0.060351517 -0.035221443 0.057034023 -0.066518396 -0.11476447 -0.02617381
0.007224095 0.035721626 0.1311619 0.08404148 0.14115725 -0.045851327 0.046199955 -0.06631209
-0.15988761 -0.036731903 0.09227154 -0.049285896 -0.11088893 -0.065027595 -0.11333738 -0.058547787
0.19899504 0.06663346 0.006526186 0.042113483 0.07313317 0.09561538 0.011473074 0.03767471
-0.042768292 0.066914774 0.08375466 0.009454715 0.054558184 -0.1827556 0.07336146 -0.08431531
0.005841527 0.09012225 0.008962306 -0.30150804 -0.0052786367 -0.17654073 -0.03251603 -0.06629093
-0.08212795 0.0047818096 0.019181812 -0.066989765 0.084314935 0.038638234 0.07929316 -0.07459971
0.019021109 0.0024955394 -0.004148436 -0.09453137 0.050026864 0.08836591 0.15861355 0.19089209
0.15213957 -0.030990709 0.025600338 0.06844218 0.03994616 -0.010063334 0.019448506 -0.08841032
0.038109116 -0.014315836 0.06520449 -0.076336846 -0.043740872 -0.003444958 0.047170226 -0.1863066
0.039447654 -0.12357667 0.025917115 -0.0007946369 0.0035514294 0.0016112363 -0.20503789 0.06782287
0.036879938 -0.011337931 -0.0081609 0.09487456 0.076390795 0.049040705 0.061494663 -0.09135855
-0.108227454 0.00928542 0.098020144 0.09409019 0.03484752 -0.043313034 0.04772574 -0.08358182
-0.06506698 0.016152646 -0.01812239 0.033070788 -0.050579496 -0.11488012 0.017294569 0.06366036
0.14669749 0.062518105 -0.0012526616 -0.098689124 0.02376839 -0.11120401 0.074374236 -0.012253927
-0.049873482 -0.016184673 -0.07195608 0.08985936 -0.0061672954 0.13560942 0.03666125 -0.07848796
-0.08182542 0.08924089 0.07480401 0.14040819 -0.10233486 0.0999611 0.018675344 0.027078724
-0.023153162 -0.06585683 0.046757948 -0.04573305 0.09649633 0.12829721 -0.020713514 0.13391784
-0.0030236875 0.03864777 -0.06116163 -0.039303232 -0.018817253 -0.088529885 0.08222318 0.08297162
-0.008039834 0.08047854 -0.096653394 0.0035524552 -0.058046322 -0.013440819 -0.01362122 0.13484183
-0.03420634 0.040389836 0.038682446 0.14524385 0.11407441 0.046076432 0.10306656 -0.11157056
0.028394261 0.05763338 -0.016325567 0.08393046 0.04379277 0.067905165 -0.10590443 -0.00509036
-0.10227993 -0.01284203 0.023804443 -0.049739536 0.15205206 0.02242339 0.023112794 0.009407892
0.05851234 -0.10655437 -0.0059446576 0.06980208 -0.044967458 0.10181801 0.054346327 -0.0009344959
00000000: fc31 193d 626d f5bc 351d 663d d311 6fbd
00000010: 07c0 013c a36a 0dbd 8765 57bd 908c 94bd
00000020: d411 043e 7a48 3b3c 26dd 4a3b 883d 463d
00000030: 71a0 923d 4684 fa3d c3c5 46bc 39c3 b43d
00000040: 5046 7b3d 9b08 38bd dc0b be3d 6da7 023d
00000050: 74bf 483b c4cd 57bd 3694 71bd cada 273e
00000060: 86dd 5a3d 259f 2cbd 42b8 ac3d 51e6 9b3b
00000070: 19ce 533c 3b02 50bc 2894 b8bc f586 813c
00000080: b768 09bd e5a5 c23d 15ce 10bd 7f51 14bd
00000090: 249f 983c 0ae4 f83d 84f0 dd3d a3e1 9f3d
000000a0: 1dce 743d 3df0 0ebc 02ee c33d 65d9 8abc
000000b0: 5cf3 71bd 9f2e 133d 86b5 91bd 05ba 0b3e
000000c0: 5e4b a73d 07a0 debc 75b4 28bd ec24 233c
000000d0: ee08 a23d 06ed d13d 53b9 aabd 7998 a3bd
000000e0: b82e 19be ce01 ae3b 7ea2 5b3c 9e5a 1a3e
000000f0: a0a1 c13c 2d6e 8b3d 26f4 84bc e832 b83d
00000100: 29d4 e8bc 0807 503b 2733 77bd 5c44 10bd
00000110: 829c 693d cc3a 88bd a209 ebbd 756a d6bc
00000120: 1ab8 ec3b d750 123d 4e4f 063e f11d ac3d
00000130: 878b 103e 9ace 3bbd 2a3c 3d3d a2ce 87bd
00000140: 94b9 23be 3174 16bd dcf8 bc3d 02e0 49bd
00000150: bc19 e3bd 302d 85bd 6e1d e8bd cecf 6fbd
00000160: 5bc5 4b3e 2077 883d 9ed9 d53b 307f 2c3d
00000170: d8c6 953d ffd1 c33d 8ff9 3b3c cc50 1a3d
00000180: ce2d 2fbd 9d0a 893d 9087 ab3d f3e7 1a3c
00000190: 6778 5f3d 4924 3bbe 883e 963d 81ad acbd
000001a0: 486a bf3b 0492 b83d a3d6 123c 435f 9abe
000001b0: 6af8 acbb 18c7 34be 872f 05bd 8ac3 87bd
000001c0: b332 a8bd bab0 9c3b 2d23 9d3c ee31 89bd
000001d0: 4fad ac3d 2043 1e3d 7464 a23d bcc7 98bd
000001e0: 28d2 9b3c 348c 233b 9aef 87bb aa99 c1bd
000001f0: f8e8 4c3d 30f9 b43d 976b 223e 3779 433e
00000200: 7aca 1b3e 3ae0 fdbc cdb7 d13c 6a2b 8c3d
00000210: 969e 233d afe0 24bc 7952 9f3c 7810 b5bd
00000220: 4e18 1c3d f88c 6abc ef89 853d 7e56 9cbd
00000230: a129 33bd cec4 61bb 9135 413d 28c7 3ebe
00000240: dd93 213d c415 fdbd 2150 d43c 2e4f 50ba
00000250: 19bf 683b 1e30 d33a 74f5 51be b8e6 8a3d
00000260: 6b0f 173d bbc2 39bc 4cb5 05bc 984d c23d
00000270: c772 9c3d e8de 483d d4e1 7b3d 311a bbbd
00000280: 5ba6 ddbd e021 183c c9be c83d 5cb2 c03d
00000290: 46bc 0e3d 0269 31bd 117c 433d f22c abbd
000002a0: d641 85bd 8e52 843c 6875 94bc 3c75 073d
000002b0: 722c 4fbd 4546 ebbd 57ad 8d3c 5d60 823d
000002c0: de37 163e 7e09 803d 5930 a4ba 861d cabd
000002d0: edb5 c23c eebe e3bd 8551 983d b2c4 48bc
000002e0: 2348 4cbd b895 84bc b65d 93bd 2f08 b83d
000002f0: 0617 cabb 32dd 0a3e 1b2a 163d 4cbe a0bd
00000300: 1694 a7bd eec3 b63d d832 993d 2ac7 0f3e
00000310: f094 d1bd 68b8 cc3d 09fd 983c 33d4 dd3c
00000320: b3ab bdbc f2df 86bd 4385 3f3d 9452 3bbd
00000330: de9f c53d 5860 033e 63af a9bc c221 093e
00000340: 0f29 46bb 204d 1e3d 9e84 7abd 6dfc 20bd
00000350: a426 9abc 284f b5bd a064 a83d 06ed a93d
00000360: 82b9 03bc efd1 a43d 37f2 c5bd 4fd0 683b
00000370: fbc1 6dbd e236 5cbc 8a2b 5fbc fa13 0a3e
00000380: f21b 0cbd d06f 253d 7c71 1e3d ceba 143e
00000390: d89f e93d a4ba 3c3d 9014 d33d 1b7f e4bd
000003a0: 159b e83c fb10 6c3d 32bd 85bc bce3 ab3d
000003b0: 0c60 333d dd11 8b3d 6ce4 d8bd 09cd a6bb
000003c0: 2478 d1bd 6167 52bc 8901 c33c afbb 4bbd
000003d0: 89b3 1b3e 42b1 b73c 0b57 bd3c 8f23 1a3c
000003e0: a3aa 6f3d 2d39 dabd 67cb c2bb 65f4 8e3d
000003f0: cc2f 38bd f685 d03d 419a 5e3d f5f8 74ba

fc_2.bias f4 [84]
0.06444642 0.045397542 0.022922011 0.07921548 0.003820081 0.018531954 0.051726196 0.07928222
-0.0036739535 0.06765769 -0.060526367 0.14675315 0.08184788 0.098637685 -0.014927152 -0.031259816
0.11621898 0.0018391113 0.06356928 -0.038737364 -0.058362585 0.055111296 0.02836207 0.1336167
0.03354359 -0.06738115 -0.05978632 0.05824505 -0.06090102 0.089391164 -0.043095518 0.062014375
0.09534697 -0.033009406 0.006885836 0.010833386 0.0018154114 0.026409239 0.013228826 -0.062354624
0.09444658 -0.071077734 0.06779859 -0.0076356307 0.0038431897 0.10115286 0.04014909 -0.09488201
0.07004812 0.049326263 -0.11385116 -0.03422189 0.1377555 -0.068192236 -0.007148803 -0.018497135
0.08202267 -0.013641432 -0.010814547 0.07437373 0.06707484 -0.047484335 0.022438139 0.06756704
0.058457244 -0.09071307 0.02995722 -0.10691253 0.07388441 -0.090883754 -0.011387569 -0.03153505
-0.07263039 0.013947542 0.033796832 0.015215 -0.09206087 -0.039322525 0.069751136 -0.007268555
0.16354445 0.037283663 0.052050073 0.01839008
00000000: 7cfc 833d c6f2 393d f1c6 bb3c ba3b a23d
00000010: 535a 7a3b 53d0 973c d9de 533d b75e a23d
00000020: b6c6 70bb 1d90 8a3d 7fea 77bd 7546 163e
00000030: dc9f a73d 8e02 ca3d 0391 74bc 4b0a 00bd
00000040: 3704 ee3d 560e f13a 9c30 823d 12ab 1ebd
00000050: 9b0d 6fbd 62bc 613d 9257 e83c d1d2 083e
00000060: 0165 093d 21ff 89bd 80e2 74bd 5d92 6e3d
00000070: 5973 79bd b712 b73d ed84 30bd c902 7e3d
00000080: 4645 c33d df34 07bd 94a2 e13b 847e 313c
00000090: 19f3 ed3a 3058 d83c b8bd 583c 9067 7fbd
000000a0: 356d c13d 3491 91bd fdd9 8a3d 5034 fabb
000000b0: 06de 7b3b 3b29 cf3d 5f73 243d 8051 c2bd
000000c0: 6475 8f3d 560a 4a3d cc2a e9bd 412c 0cbd
000000d0: c70f 0d3e 5fa8 8bbd 8240 eabb 4e87 97bc
000000e0: 80fb a73d 5080 5fbc 7f2f 31bc 4151 983d
000000f0: 895e 893d ef7e 42bd 30d0 b73c 9760 8a3d
00000100: dd70 6f3d c6c7 b9bd d868 f53c f5f4 dabd
00000110: b650 973d 4321 babd ed92 3abc e62a 01bd
00000120: 3ebf 94bd 3b84 643c 8c6e 0a3d 5648 793c
00000130: 698a bcbd a810 21bd afd9 8e3d 0f2d eebb
00000140: 3278 273e c1b6 183d 7532 553d cba6 963c

fc_3.weight f4 [10, 84]
-0.08975592 -0.20591173 -0.12836765 -0.22174463 -0.010587386 -0.14731461 -0.0059038824 -0.05846024
0.0843139 -0.110407054 -0.0009905356 0.028082067 -0.1615292 0.047453336 -0.2082147 0.030180931
0.05251186 0.03446155 -0.20436871 0.047136243 -0.059865654 -0.07297763 -0.039760236 0.09944804
-0.13437068 -0.040407337 -0.10586484 0.05237865 -0.101239525 -0.13755135 -0.16016401 -0.08648995
0.1727966 -0.040909324 -0.094537154 -0.05538829 -0.0055773314 -0.03091453 -0.13552245 -0.057530273
0.12185296 -0.0881758 0.025819726 -0.098690994 0.1529703 0.08983147 0.038123474 -0.070867464
-0.00052508584 0.15412875 -0.05162271 -0.18483104 -0.13331102 -0.072505385 0.10489999 -0.28397003
-0.010102351 0.0116235865 0.0734383 0.09800956 0.12590952 -0.09307683 0.035912715 -0.25551572
-0.1921176 -0.06751686 -0.06571106 -0.07509101 -0.0124952085 0.15577304 -0.09946328 0.05599455
-0.017908834 0.062106844 -0.106428266 0.07672554 0.00037404578 0.13490322 0.10388557 0.078691326
0.05707015 0.17094274 0.0965292 -0.03916291 -0.22010449 0.10360245 -0.02598565 0.076169886
-0.066129506 -0.21663283 0.07727951 0.20389405 -0.11322931 0.0315335 -0.12167941 -0.026316507
0.110715896 0.09202378 0.1434007 -0.1436107 -0.1053218 0.16386355 0.009616975 -0.06597927
-0.15101168 -0.021503927 -0.2074997 0.14579526 -0.16627355 0.010686341 0.057623792 -0.07674769
0.07277589 -0.063187435 -0.15811408 0.009004894 0.13688883 -0.19636536 0.03594524 0.010046904
0.16876362 0.013235296 0.0909521 7.8603814e-05 -0.12154101 -0.07904708 -0.08496376 -0.09739091
0.043209784 -0.17050388 0.13035834 0.050391503 0.20986335 -0.026360221 -0.0020831777 0.1601716
-0.124348864 -0.07395302 -0.06682578 -0.047378212 0.24227294 0.04658321 0.23438896 -0.09772561
-0.030347908 -0.086195335 0.021024613 0.18523096 -0.0030185443 0.05432711 0.05999564 0.011027361
0.15214743 0.021654872 0.15033218 -0.1385744 0.084879346 0.059212722 -0.034980614 -0.09622517
-0.052143972 -0.026825454 -0.13155204 -0.18066248 -0.007370158 -0.056044623 -0.18078111 -0.23047362
-0.08325932 0.034209687 -0.21105985 0.16770604 -0.022916526 -0.078322314 -0.019988075 -0.01831784
-0.04705038 0.06388147 -0.010108751 0.01400055 0.106404774 0.08902831 0.15502092 -0.06668761
-0.18607616 0.08929945 -0.07074342 0.040878035 0.029560067 -2.243508e-05 -0.08883821 -0.0183771
-0.030106366 0.026884802 -0.07506076 0.14545318 0.044623263 -0.11587572 0.19772978 0.12176623
0.16628432 0.006494724 0.088667214 0.07115108 -0.06793677 -0.062022705 0.026109211 -0.11799798
0.1391392 0.07199524 0.12997827 -0.013323829 0.062981375 0.103109635 -0.085022755 -0.058933143
-0.054058246 -0.21929938 -0.036236294 -0.017481241 0.16002576 0.019134175 0.101290725 -0.06809209
-0.2663155 0.04735732 -0.030464362 0.09440178 0.090369366 -0.088228464 -0.08375687 -0.15844932
-0.19822809 0.07319428 0.012992351 -0.008249813 0.014587363 -0.1931056 0.1389083 -0.03200831
0.053934615 0.009123128 0.11656582 0.059449464 0.07394485 0.060083527 0.05687666 -0.13612542
-0.21305478 0.059747223 0.091203116 -0.13480945 0.13344859 -0.071418256 -0.057743758 -0.061669253
00000000: f4d1 b7bd 86da 52be cf72 03be 0611 63be
00000010: b776 2dbc a4d9 16be 5b75 c1bb 0174 6fbd
00000020: c4ac ac3d 181d e2bd dcd4 81ba 5d0c e63c
00000030: e967 25be 6e5e 423d 3c36 55be 003e f73c
00000040: ad16 573d 8e27 0d3d 0846 51be ef11 413d
00000050: b035 75bd 4c75 95bd a1db 22bd 6aab cb3d
00000060: 7898 09be 2a82 25bd aacf d8bd ff8a 563d
00000070: ab56 cfbd 43da 0cbe 0902 24be a521 b1bd
00000080: 98f1 303e 8990 27bd b29c c1bd d5de 62bd
00000090: 0cc2 b6bb 7840 fdbc 66c6 0abe dda4 6bbd
000000a0: 0b8e f93d 8495 b4bd e483 d33c 811e cabd
000000b0: 3fa4 1c3e 90f9 b73d 5c27 1c3d f622 91bd
000000c0: eaa5 09ba edd3 1d3e 5672 53bd 5944 3dbe
000000d0: af82 08be b47d 94bd ced5 d63d 8564 91be
000000e0: 5584 25bc db70 3e3c d266 963d 3cb9 c83d
000000f0: 6dee 003e 119f bebd 3619 133d f5d2 82be
00000100: 7aba 44be 4846 8abd 8593 86bd 51c9 99bd
00000110: b4b8 4cbc f882 1f3e 67b3 cbbd 8b5a 653d
00000120: 8cb5 92bc bf63 7e3d 10f7 d9bd 4822 9d3d
00000130: 931b c439 1224 0a3e f5c1 d43d eb28 a13d
00000140: 64c2 693d 9d0b 2f3e 1ab1 c53d 4a69 20bd
00000150: 1263 61be 852d d43d dcdf d4bc f5fe 9b3d
00000160: e86e 87bd ffd4 5dbe b844 9e3d 9ac9 503e
00000170: c5e4 e7bd 4529 013d 0e33 f9bd b795 d7bc
00000180: 04bf e23d f776 bc3d a2d7 123e af0e 13be
00000190: f5b2 d7bd d9cb 273e 8490 1d3c 2420 87bd
000001a0: cea2 1abe 0129 b0bc cd7a 54be 5a4b 153e
000001b0: 9d43 2abe c315 2f3c ed06 6c3d e52d 9dbd
000001c0: 870b 953d 6a68 81bd a8e8 21be 4389 133c
000001d0: 962c 0c3e 0014 49be 513b 133d c59b 243c
000001e0: 5fd0 2c3e dbd8 583c 1845 ba3d 1ad8 a438
000001f0: 7eea f8bd 6fe3 a1bd 7b01 aebd e374 c7bd
00000200: befc 303d 9298 2ebe a87c 053e 5267 4e3d
00000210: 6be6 563e 64f1 d7bc ec85 08bb 0604 243e
00000220: 9eaa febd ae74 97bd f4db 88bd a80f 42bd
00000230: 6616 783e 09ce 3e3d a903 703e 5d24 c8bd
00000240: 2d9c f8bc 2e87 b0bd cf3b ac3c 2fad 3d3e
00000250: c5d2 45bb 1b86 5e3d fdbd 753d 1bac 343c
00000260: 89cc 1b3e 8f65 b13c aef0 193e 73e6 0dbe
00000270: 39d5 ad3d 0a89 723d d547 0fbd b411 c5bd
00000280: eb94 55bd 0ec1 dbbc 94b5 06be 96ff 38be
00000290: 5e81 f1bb 0c8f 65bd af1e 39be 4701 6cbe
000002a0: dd83 aabd 751f 0c3d 1320 58be 22bb 2b3e
000002b0: 70bb bbbc 7367 a0bd 08be a3bc 4b0f 96bc
000002c0: e6b7 40bd 4ad4 823d 2d9f 25bc 9062 653c
000002d0: bfea d93d 7954 b63d cebd 1e3e 8393 88bd
000002e0: c08a 3ebe a1e2 b63d ede1 90bd ba6f 273d
000002f0: f427 f23c f832 bcb7 cff0 b5bd 928b 96bc
00000300: a0a1 f6bc 843d dc3c 75b9 99bd aef1 143e
00000310: e2c6 363d 4050 edbd ad79 4a3e 9360 f93d
00000320: 7046 2a3e b2d1 d43b 2897 b53d a8b7 913d
00000330: 6f22 8bbd 850b 7ebd fce2 d53c eda8 f1bd
00000340: 827a 0e3e 3e72 933d 0619 053e 304c 5abc
00000350: 61fc 803d 252b d33d 6920 aebd e163 71bd
00000360: 2e6c 5dbd 0490 60be 826c 14bd d234 8fbc
00000370: cbdd 233e 46bf 9c3c 8371 cf3d de73 8bbd
00000380: 815a 88be c0f9 413d 6690 f9bc b855 c13d
00000390: 9313 b93d 20b1 b4bd b988 abbd 8a40 22be
000003a0: 4efc 4abe e2e6 953d dfdd 543c 392a 07bc
000003b0: d6ff 6e3c 79bd 45be fa3d 0e3e 251b 03bd
000003c0: 8bea 5c3d 2c79 153c 10ba ee3d 4881 733d
000003d0: 6670 973d 251a 763d 80f7 683d 7664 0bbe
000003e0: 082b 5abe 81b9 743d b3c8 ba3d 7d0b 0abe
000003f0: bfa6 083e bc43 92bd b884 6cbd e698 7cbd

fc_3.bias f4 [10]
0.05470659 0.019217694 -0.09743054 -0.055933006 -0.08912471 -0.02262038 -0.044680703 -0.038140975
-0.047260325 0.114306346
00000000: 0414 603d 6d6e 9d3c aa89 c7bd 021a 65bd
00000010: 0487 b6bd 604e b9bc 1d03 37bd b639 1cbd
00000020: 0b94 41bd 7219 ea3d
